assets/audio_rec.tflite (tflite, 232248 bytes, 10 tensors)

dense_1/bias f4 [7]
00000000: 48fd 3cbd 8ddc 913d 01ff 33bc a979 8cbd
00000010: ddc0 9e3c d1de 9e3d e243 74bd
-0.046139985 0.07122145 -0.010986091 -0.06859142 0.019379074 0.077573426 -0.05963505

dense/bias f4 [128]
00000000: 5b75 9bbc d6b4 cdbc 7933 ae3c d985 043d
00000010: 4233 e8bc cad7 21bc babc f63c f6bd 683b
00000020: 1679 523d a2a3 443d aeaa 28b9 0457 2ebc
00000030: 4f49 51bd 668a 69bc 2f6c 623d cb10 28ba
00000040: bded 19bd d2ff 8ebb d249 8cbb 9e65 333c
00000050: a255 0e3d 62ff dabc 8de2 2fbc d3ca eabc
00000060: efc9 62bc 32c8 c8bc f810 dbbc 5c8e 23bc
00000070: 0e04 d7bc 12c1 613c f1e4 28bd 6678 6aba
00000080: a902 353d 9b96 043c 165c 2e3d 95ad 433c
00000090: 6c41 483d ac5a 923c 455a 4a3d 7adb 0cbd
000000a0: 9311 a33d de73 b8bc b954 613d fb5a 463d
000000b0: 4efb 9dbc d220 413c 57a2 213c 9dc7 293c
000000c0: 7421 da3c ea96 a1bc 9436 ab3b 78f0 22bc
000000d0: c38d a7bc 1e89 3e3d 4645 2c3d 709b 433d
000000e0: 690b 003b cb36 29bc 8ffe 113d d00f 203d
000000f0: 8dc4 6bbc a0b4 653d 6c75 293c cc94 d3bc
00000100: 04e1 283a 8837 b33c f24f 313d 54f3 fabc
00000110: 822b 113c f211 daba f63b 16bc 3e14 81bb
00000120: c00a 15bd fadc 25bd d77a 8fbb 1987 403d
00000130: 993b 8fbc d7bf 1bbc 3703 863c a4c1 6e3d
00000140: b641 083d e32f 6d3b 224d a83c 5f04 fbb9
00000150: 6448 b13c 094a ddbc 0c63 0dbd e553 13bd
00000160: 89b9 f5bc 9547 253c 0075 373d 52ba 233a
00000170: 46d8 183d be30 4f3d 7ed0 01bc cf9e 593c
00000180: ce94 a73c b90d 943c b279 10bc 0b12 25bd
00000190: ecba 05bc 62c8 ba3c 0171 2f3d 295b 793b
000001a0: 3261 113c 37c0 03bd 53ef 323c eeac 153c
000001b0: 3818 8f3c 5695 453d d315 8ebc a97a a6bc
000001c0: 54e0 ff3c 8db8 043d 2780 92bb 8fc0 a9ba
000001d0: 2aa8 e8bc d51b 8f3b 5155 793d e100 573d
000001e0: c365 e6bb 2ed2 943c 037d 003b f4c2 a23b
000001f0: 43c8 b63c 6ab5 713c de15 bdbc a746 ca3b
-0.018976858 -0.025110643 0.021264778 0.03235421 -0.028344754 -0.009878108 0.030119289 0.0035513616
0.051385008 0.048007615 -0.00016085312 -0.010640863 -0.051095303 -0.014254188 0.055278953 -0.0006411194
-0.03758024 -0.0043639923 -0.004281261 0.01094952 0.034749635 -0.026733104 -0.010735166 -0.028661167
-0.01384209 -0.024509523 -0.02674149 -0.009982672 -0.02624705 0.013778942 -0.04123396 -0.00089443324
0.04419199 0.008092548 0.04256829 0.011943241 0.048890516 0.017865501 0.049402494 -0.034388997
0.079623364 -0.022516187 0.05501244 0.04842661 -0.01928487 0.01178761 0.009865365 0.010362533
0.02662728 -0.019725282 0.005225012 -0.0099450275 -0.02045334 0.046517484 0.04205825 0.04775566
0.001953805 -0.010328005 0.035643157 0.03907758 -0.014390123 0.05608046 0.010342937 -0.025827788
0.00064422213 0.021877065 0.043289132 -0.030633606 0.008860471 -0.0016637428 -0.009169569 -0.0039391806
-0.036387205 -0.040493943 -0.0043786573 0.04700384 -0.017484473 -0.009506187 0.016358955 0.05829014
0.03326579 0.0036191873 0.020544592 -0.00047877707 0.021640964 -0.027012842 -0.034518287 -0.03596868
-0.029995697 0.010087867 0.044789314 0.00062457204 0.03731563 0.050583594 -0.007923244 0.013282492
0.020456698 0.01807295 -0.008818077 -0.04030041 -0.008162241 0.022800628 0.04283238 0.003804872
0.008873271 -0.032165732 0.010921317 0.009135468 0.017467603 0.04823812 -0.017344391 -0.02032216
0.031234898 0.032402564 -0.0044708434 -0.0012951064 -0.0284005 0.0043673315 0.06087238 0.052491073
-0.007031174 0.018166628 0.0019605763 0.004967088 0.02231229 0.014752725 -0.023081716 0.006172973

conv2d_2/bias f4 [64]
00000000: 0802 bebc 13d0 10bb 57b7 95bc 0fa6 c5bc
00000010: da64 653c 8d7b 02bd b823 8c3c 37be 7239
00000020: 8c7d 40bc c429 2fbb 1ab4 ad3c ba79 583d
00000030: 71b1 523b 7278 f5bb 6cf0 63bc eeb5 e6bc
00000040: 6f61 d2bc aa7a 253c 4f4a f3bc 2135 a53c
00000050: df0e 493b 4ea2 da3b 2a10 05bc 6326 71bc
00000060: b13c ca3c c615 73bc 9194 3cbc 38cf 90bb
00000070: 6b50 e13c c272 e93c 8e5c 703c d665 a93b
00000080: 379d cdbc f632 cf3c 8560 233d 2e42 263d
00000090: 898b e73c 31ae 833c 39e8 27bd b677 c63b
000000a0: 9dcc 88ba f444 7d3b 9370 fabc 654a febb
000000b0: eb42 f3bc c448 c73b 63d4 efbc 791f 293c
000000c0: 56ab a3bc e219 b6bc 0cfe 04bc 1307 73bc
000000d0: 1efc 9fbc 177d a73c 9014 94bb 0aef 2a3d
000000e0: 3152 b3bb fd7b 173c 2590 c0bc 13a4 7ebc
000000f0: f6ac 1abc 8547 93bc 3b4a 04bc 40ae 73bc
-0.023194328 -0.0022096678 -0.0182759 -0.024127034 0.014001096 -0.03185611 0.017106876 0.00023149779
-0.011748683 -0.0026727775 0.021204043 0.052850462 0.003214922 -0.007491165 -0.0139123015 -0.028162923
-0.025681226 0.010100046 -0.029698519 0.020166935 0.003067903 0.0066721803 -0.00812153 -0.014718625
0.024687143 -0.014836734 -0.01151003 -0.0044192336 0.027504167 0.028497104 0.014670504 0.0051696105
-0.02509938 0.025292855 0.03988697 0.040590458 0.028264778 0.016074272 -0.04099295 0.006056751
-0.0010436956 0.0038645836 -0.030571258 -0.0077603334 -0.029694995 0.0060816724 -0.029276079 0.010322445
-0.01997916 -0.022229139 -0.00811721 -0.01483323 -0.019529399 0.02044539 -0.004519053 0.04173187
-0.0054724445 0.00924587 -0.023506233 -0.015542048 -0.009440651 -0.01797844 -0.008074339 -0.014873087

conv2d_1/bias f4 [32]
00000000: 0648 0c3c 8036 f33b 6c95 f13c 199b 353c
00000010: 9950 93bc 5c47 51bc 50a7 e43b ae6b 113d
00000020: e0f3 813c dd9c 423c 15ea 123d 5060 c53c
00000030: 8f94 87bb 65a1 693c 6044 82bc 0620 a23c
00000040: ea9b c93c 526c 403c b4bf 583b 3915 993c
00000050: ad26 5d3c e05a 3a3c 07c6 143c 4b36 8f3c
00000060: 5bce 36bc 6d48 063c 5b92 763c b796 b53b
00000070: 7d64 eb39 4b3e 223c a5ad 93bc 23ec f63c
0.008562094 0.0074222684 0.029490195 0.011084341 -0.017982768 -0.012773361 0.006977953 0.035503082
0.015863359 0.011878219 0.03586777 0.024093777 -0.0041375826 0.014259671 -0.015901744 0.01979066
0.024610478 0.011744576 0.0033073248 0.018686878 0.013497991 0.011374205 0.0090804165 0.017481944
-0.011157597 0.008195979 0.015049542 0.0055416483 0.00044897562 0.009902547 -0.018027136 0.030141896

sequential/dense/MatMul f4 [128, 256]
00000000: 602e 9e3d babc ebbd 5ce0 e83d f91f 97bb
00000010: 5b64 503d f89e c43d b1b7 1b3d cde4 99bc
00000020: f5ec 47bd cbf6 99bd 3b8c a7bd c1fe 20bd
00000030: 97c9 1b3e b41e a63d 9cc9 04be 6709 8fbd
00000040: c334 d1bc f4ff adbc 2d6c a3bc ae61 b4bd
00000050: 1a7c 4f3c 3fab 42bc 9229 76bd 3bbb 293e
00000060: dc3e 9abd 4f0d 973c c504 76bc 702a d73c
00000070: 6013 43bc faa5 fabd 20df 103c 0fec 83bd
00000080: 4c23 043e 9270 05bc 52a2 f03d 53f6 cfbd
00000090: 9cbd 58bd 0d33 d5bd 4f54 a43c b06b 5dbc
000000a0: eb53 b13d e762 c8bd ae4f b03d 95e7 b4bc
000000b0: b251 3a3e b161 99bc 9ea9 90bd 0e22 c43d
000000c0: d3c9 95bd 9bcb d5bc 4222 04bd f4ab c03d
000000d0: b0c8 ae3d 632d 9ebd a7ab 7abd 85bf dc3d
000000e0: 9450 a43d 50a8 c53d 54d2 123e 2f68 69bb
000000f0: 3aae e4bd fc01 083e ea61 863d ea15 4c3d
00000100: 0698 943d 7738 9a3d 2412 5d3d b0a9 903d
00000110: 98b0 873d 4548 e33d f7a1 963d 42a5 fe3c
00000120: 0942 f73d 89ae 4ebd f094 b0bd 088a 48bd
00000130: 8ab0 773d a074 a83c 04a7 df3d 2211 a93d
00000140: 425f dfbc c39a 74bd 9899 1cbc 7e94 a23d
00000150: 40dc 12bd 60a0 bb3d 4d42 573d 2d7f 20bd
00000160: 4337 04be ecb9 4f3d 3539 72bd a324 303d
00000170: 436c aabd 96bd 89bd 7856 8bbc 3fd8 4cbd
00000180: a98f 1cbc ca4a f5bc 63a2 7f3d f041 8d3c
00000190: 27a7 61bc 7a91 21bd e969 c3bd 8eac 4fbd
000001a0: 5e86 d8bc 53f6 32bd 7f4e 893d 742d bd3b
000001b0: 3d10 c33d 5753 51bd b481 ad3c b496 43bd
000001c0: cc66 fb3d 283d 70bc d156 973d 3780 84bb
000001d0: e325 c4bd 0f82 9cbd 2323 bd3d a89b 913d
000001e0: 87ac 1b3e 4f64 c43d 2b71 153e 7a6c 97bd
000001f0: b93b e0bd 3edf 9cbd 0778 4bbd aa59 5dbd
00000200: 1bd7 7d3d 018a 37bc f248 a73d 37e4 873d
00000210: 2bbe ec3d d679 843d 0026 063d 7fa6 b93d
00000220: 1e67 f33d debe c33a 19bd 70bd 5e7c 78bc
00000230: 81d9 863d a0e1 61bd bb63 c53c df0f 863d
00000240: 2ab0 113e 9efd 833d dd18 f53d 5ace 023d
00000250: 9165 a53d 06bb 16bd 0611 0a3e 0cf8 873d
00000260: e332 2ebd 99c0 92bd a1b5 f4bc b69c 36bc
00000270: 60d5 153e 5e3d e93d 5a59 bebc c071 af3d
00000280: badf 35bd 7802 963d 6649 603d 8aa4 a9bd
00000290: eed3 bfbd 46c3 08bd 280f 8abc 6a83 c8bd
000002a0: 7124 abbd 92e6 dc3d 06b8 c2bc 62fe 90bd
000002b0: 08b1 443d 4aa9 543b 9b32 123c 636c 5ebd
000002c0: 67bd 0cbc ddec 933c f01b 55bd a797 bebd
000002d0: 2a4c 1e3e e3e9 c9bb 185e b7bd fddd 0d3e
000002e0: de1b cabc e90f 2fbd 362f 48bd 075c 09bd
000002f0: e217 0a3c 41f2 1abd 2a24 443c f1d7 e53d
00000300: 0a62 41bd 50d7 8ebc 1cdd cebd a0cb ce3d
00000310: 40c9 c6bc e1ca 9dbd ce79 ba3d 18fe ee3d
00000320: 0927 94bd f311 583c 74aa 833d 098d 5dbb
00000330: d4c0 293e aae0 aa3d c2f3 df3d 9e4f 4fbd
00000340: 648b a63d 3c15 d2bd c7bb 753d 21b2 2e3d
00000350: f633 933c 6334 d9bd 1960 c7bc c333 043e
00000360: 271f dbbd 27a4 cf3d 16c2 973c a8d8 253d
00000370: fdd4 dabc dff3 b33d 46ca 793d db18 19ba
00000380: 957a 1a3d 9fc1 04be 71c9 fb3a f987 06be
00000390: 64ef 523d 892e 7c3d fc5f ed3d 6979 c1bd
000003a0: 9f0b 4dbc 0772 ed3d 5721 6cbd 64a6 8a3d
000003b0: 2857 ac3d 094c fd3d 3a89 aa3d d6bd c3bc
000003c0: 78f8 e5bd 9ad7 d4bd aebd 103b a120 7a3d
000003d0: 244b e6bb e125 e6bc 1543 7ebc 2bc6 5a3d
000003e0: d2a0 acbc 97d4 92bd 759c 053d 9eed 35bd
000003f0: cd7d e73d f101 94bb 9c84 b63d 74a4 fd3d
0.07723689 -0.11510606 0.11370918 -0.0046119657 0.050876956 0.096006334 0.03801698 -0.018785859
-0.048809964 -0.07517775 -0.08181044 -0.039305452 0.15213619 0.08111325 -0.12967533 -0.06984215
-0.025537854 -0.021240212 -0.019949043 -0.088076934 0.012663865 -0.011881649 -0.06009824 0.16575329
-0.07531521 0.018438963 -0.015015786 0.026265353 -0.011906475 -0.12238689 0.00884226 -0.06441509
0.1290409 -0.008144515 0.1174971 -0.101544045 -0.0529152 -0.10410128 0.020059733 -0.013514444
0.08658584 -0.09784489 0.08608948 -0.022083083 0.18195227 -0.01872334 -0.07063602 0.09576808
-0.073138855 -0.026098063 -0.032259233 0.094077975 0.08534372 -0.077235006 -0.061198857 0.10778717
0.080231816 0.09651244 0.14338046 -0.0035615077 -0.111660436 0.13282007 0.065616444 0.049825586
0.07255559 0.07530301 0.05397238 0.07063615 0.066254795 0.11097769 0.07355111 0.03108466
0.12073142 -0.05045942 -0.086221576 -0.04895976 0.060471095 0.020563424 0.109205276 0.08255221
-0.027267102 -0.059717905 -0.009558104 0.07938479 -0.035854578 0.091614485 0.052553464 -0.039183784
-0.12911706 0.05071442 -0.059136588 0.04300369 -0.083214305 -0.06725614 -0.017009005 -0.050010916
-0.009555736 -0.029942889 0.062410723 0.017243356 -0.013772762 -0.039445378 -0.09541685 -0.05070167
-0.026431259 -0.043691944 0.06704425 0.0057732407 0.095245816 -0.05110487 0.021180011 -0.047751144
0.12275466 -0.014663018 0.07389606 -0.0040436047 -0.09577539 -0.07641994 0.092352174 0.07109767
0.15202533 0.09589445 0.14593951 -0.07393737 -0.10948891 -0.076597676 -0.049675014 -0.05404059
0.06197272 -0.011202336 0.0816821 0.066353254 0.11559709 0.06468551 0.032751083 0.0906496
0.118849024 0.0014934202 -0.058774088 -0.01516637 0.06584454 -0.055146813 0.024095407 0.06545996
0.14227358 0.06444858 0.11967633 0.031935073 0.08076013 -0.036799453 0.13483056 0.06639108
-0.042528998 -0.07165641 -0.029871764 -0.011145761 0.14632177 0.11388658 -0.023235966 0.08566618
-0.044402815 0.073246896 0.0547575 -0.082833365 -0.09366594 -0.033389352 -0.01685293 -0.0979069
-0.0835656 0.10786165 -0.02376939 -0.0707977 0.048020393 0.0032449537 0.008923198 -0.054302584
-0.008590079 0.018057281 -0.052028596 -0.09306269 0.15458742 -0.0061619147 -0.08953494 0.13854213
-0.024671491 -0.042739782 -0.04887315 -0.03353503 0.008428546 -0.037828688 0.011971513 0.11222828
-0.047212638 -0.017436653 -0.10100767 0.10097432 -0.024265885 -0.07704712 0.09105264 0.11669558
-0.07234008 0.013187873 0.06428996 -0.0033805987 0.16577464 0.083436325 0.10935165 -0.05061304
0.081320554 -0.102579564 0.05999353 0.042650346 0.017969113 -0.10605695 -0.024337815 0.1291037
-0.10699301 0.101387314 0.018525165 0.040489823 -0.026712889 0.08786749 0.06098392 -0.00058401906
0.03771456 -0.12964486 0.0019209814 -0.13137807 0.051497832 0.061567817 0.11590573 -0.09446985
-0.012514978 0.115940146 -0.057648983 0.06770018 0.08415061 0.12368018 0.08326955 -0.023894232
-0.11229032 -0.10392685 0.0022085714 0.061066274 -0.0070280004 -0.028094234 -0.015518923 0.053411644
-0.021072779 -0.071694545 0.032619912 -0.044416063 0.113032915 -0.004516833 0.08912012 0.123848826

sequential/dense_1/MatMul f4 [7, 128]
00000000: d202 173e d274 f7bd 3372 0cbd bbfa 20be
00000010: 10db 403e e3aa bebd 8fa6 733d 95f5 38be
00000020: 5fb4 d2bd 0e12 62be 0ce6 173d 0612 2bbd
00000030: cd60 463e ce1a 203d fef2 5bbd b3e6 0dbe
00000040: 3337 333e f4e4 c93d c8c7 c4bd 833a 193d
00000050: b75e 1bbe c299 683e a5b5 32be a68f d13c
00000060: f27c 83bd 60f6 78bc 32fa 6f3d b5f4 e13d
00000070: 6a5d 2fbe 9c84 2dbe 7a18 32be ddba 4a3e
00000080: fd42 093e 4824 4d3e 600e 493e 7c15 83be
00000090: 62db 78bd 10d6 533e cd9a 96bd 3a0a e2bb
000000a0: 8e49 8abd 1b96 bfbd 3de4 0ebd 9be3 a03d
000000b0: 0d4a 88bd 9d14 32be 67e4 363d d4c5 02bd
000000c0: 21d9 1fbd 8e19 24bd 9863 97bd 323b cf3d
000000d0: 9d11 de3d cc81 d93d 7105 1abe 374d 053e
000000e0: 84d7 f5bd 9661 3d3e c1b2 8ebd b847 39bd
000000f0: e2cd 033e 3e0f 40be ff09 cf3d c4f6 d2bd
00000100: 0934 4ebe f6d6 0a3e ef2f 29bd 294d 853d
00000110: ee6d da3d cf66 f03d 169b 523e 8748 1e3e
00000120: 3e60 a4bb 6a31 073e 9ff0 d23d 4395 cfbc
00000130: bff7 d63c daa4 1e3d cfa5 22be 3858 02be
00000140: da00 e3bb f4bf f23d 8d8a e2bc 6ff5 113e
00000150: 8f73 cbbd efa7 1b3e cf48 ea3c 420a 4bbe
00000160: 0ab0 c5bd dcab 44be 5f37 523e 5c6d 78bd
00000170: c8be 153e 56ad b23d ff4f f3bd c172 b9bd
00000180: 18be 3c3d 26d2 a9bd c704 3e3b 98ce ee3c
00000190: f476 653e c266 0c3e 38f0 59be 8b4d 5e3e
000001a0: baef 683e cd3d 7ebc 5f7d b63d 09b9 eb3d
000001b0: 7b82 163e 95b7 06be ca8d 083e 803f 97bc
000001c0: b78d 98bd 9f34 4cbd c866 8abd 0adc e13c
000001d0: 8efa aebc 418d 65be 3775 53be 5e5b b43c
000001e0: e7af 20be 46f4 f73d 19e2 57be c38a b23d
000001f0: 5d57 aabb e09f 08be 2255 3abe 2627 a1bc
00000200: 31c6 21bd 6d7f 6cbe 6078 3b3e 30af a6bb
00000210: d7a4 6dbe d10b 003d 2fbd 6d3e d425 1dbd
00000220: 1d1f ee3d b2c7 86be b3bd 93bc 177f 41be
00000230: 7932 af3c 8383 e8bc 90e1 203e f0e0 773d
00000240: b0d1 55be 75a8 293e 0258 93bd d0e3 63bd
00000250: 8902 ca3d 8ad9 37be 8ee2 0c3d c0cd 01bd
00000260: 3d98 15be 0fba 4e3d 5815 30be 34f4 26be
00000270: 6e7f d6bd b986 063c 6e82 5abe 1699 80be
00000280: ec1d 433d 722c 153e 82be 98bd 380b 23bd
00000290: 5e60 383d 8087 15bc 48f2 fc3d 1118 62be
000002a0: 008c ac3d 1bcb e83a 0bb8 5d3e 7099 0e3e
000002b0: 70c4 33be 2374 313e 4601 c1bd c0f2 5bbe
000002c0: 499d ca3c 4658 bf3b 7e20 293e 9ac8 afbc
000002d0: b674 c0bd 2160 5e3e e00b 2f3e 0fd0 423d
000002e0: eae9 44be 8e32 9fbd 485d cb3c 1eab b4bd
000002f0: 0f1a 3dbe 4a65 1d3c 6db1 43bd cf23 23be
00000300: 8213 92bb 6bf9 663e 58a8 4f3e 1d5f 95bd
00000310: 5de5 583e 2772 4ebe 752c 3cbe 89df f5bd
00000320: d238 b9bd f0c3 88be ec8b 1a3d 7614 f0bc
00000330: 1ff6 1fbe c852 00be 75c3 0b3d 546e e9bc
00000340: 12a3 bd3d 870b bebd 8309 693e bd84 2cbe
00000350: 3783 233d d476 813d 7255 08be 8f5f 283e
00000360: 6b23 33be 39cd 103a a276 d43d 0172 4bbe
00000370: e67c 403d ae84 a63d ebbf bcbb 7c27 fc3d
00000380: b667 1b3d cd25 253e 8889 0c3e 2007 3bbe
00000390: 88f2 0ebe a384 f33d c3e6 7ebb 21d8 2cbe
000003a0: 2c5a 323e 2c02 9cbd 6e08 ad3d 467f 0f3d
000003b0: 8c5b 12bd d0ab 263e 9850 36be a987 42bc
000003c0: 15f9 b3bd 81d8 2c3e a7f2 2c3e 0e95 0abd
000003d0: 3d05 59be 6ff4 f73c fee9 683d e679 413e
000003e0: e22b b9bd 63cc c33d 55f6 3cbe e5a3 403d
000003f0: a446 8cbe 065e 30bc 20f1 8f3b 76c6 4bbe
0.1474717 -0.120828286 -0.034288596 -0.15720646 0.18833566 -0.09309938 0.059485015 -0.18062432
-0.10288309 -0.220772 0.037084624 -0.041765235 0.19372864 0.039088063 -0.053698532 -0.13857536
0.17501526 0.098581225 -0.09608418 0.037409317 -0.1517285 0.22714904 -0.17452104 0.025581192
-0.06420316 -0.015195459 0.058588214 0.11033002 -0.17125478 -0.16945118 -0.1739215 0.19797845
0.1340446 0.20033371 0.1963439 -0.2560233 -0.060756095 0.20687127 -0.07353745 -0.0068981918
-0.06752311 -0.09354802 -0.034885634 0.07855912 -0.06654749 -0.17390676 0.044651415 -0.031926945
-0.03902543 -0.040063433 -0.07392043 0.101187125 0.10843203 0.1062046 -0.15041138 0.13017736
-0.12003997 0.18494257 -0.06967688 -0.045234412 0.12871507 -0.18755814 0.101093285 -0.10300973
-0.20137037 0.13558564 -0.04130548 0.06508858 0.10665499 0.11738359 0.20566973 0.15457354
-0.005016356 0.13202444 0.10299801 -0.025339728 0.026241181 0.038731433 -0.15883563 -0.12728965
-0.0069275917 0.118530184 -0.027653957 0.14253782 -0.099341504 0.1520078 0.028599171 -0.19828132
-0.096527174 -0.19206184 0.20528935 -0.06065117 0.14623559 0.087244675 -0.118804924 -0.09055091
0.046079725 -0.08292036 0.0028994547 0.029151246 0.22408658 0.13711074 -0.21283042 0.21709268
0.22747698 -0.015517664 0.089106314 0.11509902 0.14698212 -0.13155968 0.13335338 -0.018462896
-0.07448905 -0.04985487 -0.06757885 0.027570743 -0.021359708 -0.22417165 -0.20650183 0.022016224
-0.15692101 0.12107138 -0.21082343 0.08717873 -0.005198403 -0.13342237 -0.18196538 -0.019671988
-0.03949565 -0.23095484 0.18307638 -0.005086802 -0.23207413 0.03126127 0.23216699 -0.038366154
0.11627028 -0.2632423 -0.018034792 -0.18896137 0.021386372 -0.028383022 0.15711045 0.06051725
-0.2088077 0.16568168 -0.071945205 -0.05563718 0.09863765 -0.17954078 0.034395747 -0.03169036
-0.14608856 0.050470408 -0.17195642 -0.16304094 -0.10473524 0.008210831 -0.21338817 -0.25116795
0.047635958 0.14567736 -0.074582115 -0.03980562 0.045013778 -0.009126544 0.12350899 -0.22079493
0.084251404 0.0017760725 0.21652238 0.1392572 -0.17555404 0.17329459 -0.09424071 -0.2147932
0.024733203 0.0058393804 0.16516301 -0.021457959 -0.09397261 0.21716358 0.17094374 0.0475617
-0.19229856 -0.077733144 0.024824753 -0.088217005 -0.18466972 0.009606669 -0.04777663 -0.15931629
-0.004457892 0.22556083 0.20279062 -0.07293532 0.21181245 -0.20160733 -0.18376334 -0.120055266
-0.09044041 -0.26711988 0.037731096 -0.029306632 -0.15621231 -0.12531579 0.03412195 -0.028494991
0.09259619 -0.092795424 0.22757535 -0.1684751 0.039920058 0.06321493 -0.13313845 0.16442703
-0.1749398 0.00055237446 0.1037419 -0.19867708 0.046994112 0.081307754 -0.005760183 0.123122185
0.037940703 0.16127701 0.13724339 -0.18264437 -0.13959706 0.11890533 -0.003889487 -0.16879322
0.1741721 -0.07617602 0.084488735 0.035033487 -0.035731837 0.16276479 -0.17804182 -0.011873164
-0.08787743 0.16879465 0.1688944 -0.033833556 -0.21193404 0.030267922 0.056863777 0.18894157
-0.09041573 0.09560468 -0.18453343 0.047031302 -0.27397645 -0.010764604 0.004392758 -0.19899926

sequential/conv2d_1/Conv2D f4 [32, 3, 3, 16]
00000000: 98c2 483d cf2b 05bd 4daf c83d e113 a63d
00000010: 0eb9 be3d 7b8b 873b 2683 d23c 5cb4 f43d
00000020: 0c9c 4cb9 54a6 ccbd d4f5 0e3e 5297 96bc
00000030: 8dac 4a3d ea4c d03c 1679 45bd ded2 083d
00000040: 6793 1c3c a886 08bd af4f 993d 0e7e 363d
00000050: 0386 143c 59b5 273d 693d 603d 2560 803d
00000060: aee8 83bd 084f 72bd deab 983d 3677 28bd
00000070: 4d7e 673d d354 3dbc 515d 2a3d 7728 b83d
00000080: fb49 b63d 283f 6dbd cf1d 4a3b fabc 2b3d
00000090: d135 a7bc 0a5c a8bd 754e da3d 71bd d73d
000000a0: 0b27 4c3d 5e14 03bd 41d9 02bd 9974 c93d
000000b0: 549f 833d e1e0 0a3d 9bfb 973d 09cb b1bd
000000c0: 35e5 90bd 09a0 19bd f9f3 c43d 1eaa c33d
000000d0: 070a 81bd b751 d63d a52f 01be e075 0b3c
000000e0: 6310 9cbd 1ed0 edbd c3e7 d8bc 19f5 a13c
000000f0: 42bf ac3d 0b13 03be 7f66 4f3d 5a8e 4d3d
00000100: 067a 0d3d d694 bdbd 73e7 d23d 8efa 563a
00000110: 269f ddbd 17c6 8aba fbc0 39bd 38c7 75bd
00000120: 805f 2d3d eacb d73d 2da4 d33d 4aef 19bd
00000130: dcbf 9dbd b19e b73d 95b7 773b 8497 fe3d
00000140: 7b5b 8cbd 5cd7 023d c82a 4dbc 0185 10be
00000150: 6f71 8c3d d861 56bd 4599 c13d 87cf 1e3d
00000160: 5c0c d7bd b94f 89bd 60b5 783d 4bbc 223d
00000170: 294b d13d 69ac 1bbe 2e85 25bd c6a5 233c
00000180: 01c3 95bc c87b 2cbc 7d46 f3bc 10c7 77bd
00000190: e4f5 a13c ad5d 1f3c 4cf8 babc a446 9abd
000001a0: 19c4 cdbd 6456 ff3d aca6 00bd 8064 df36
000001b0: 1c91 dbbd 212c 9ebd 4e83 45bd d0f3 4cbd
000001c0: 8ce6 ad39 14b0 8b3c b06b e73d 1d1f 4d3c
000001d0: a42b cebd 56c8 c3bd 39cd 073e 455c 30bd
000001e0: d473 33bd 1f42 033e a17a b7bd 3740 313d
000001f0: 95e8 6cbd 0e67 2dbd 5f13 e5bd 8199 d8bc
00000200: 52dd 8a3c 90f2 b4bd 28b2 3abd e5fb 833d
00000210: ef25 51bc f4a0 dabc 0416 3c3d 6302 d43d
00000220: ebfa 2d3d 7ff6 3dbc 3ee9 dfbb 5981 b5bd
00000230: abef dd3c 773b e63c 1951 ff3d 1735 bcbb
00000240: d360 ce3b a728 883c 34f7 db3d df96 413d
00000250: ed0b e53d f59a 54bd c018 9b3c 5914 e63d
00000260: da29 473d 5e20 5a3d 20ac 2fbb cc94 debd
00000270: d643 853d 0d20 463d fe9b eebd a3b9 f4bc
00000280: df8f b83d 9768 7e3d 313a 32bd 2e48 733d
00000290: 2ab5 6f3c ae97 c6bd f6dd c1bd a4f2 db3d
000002a0: 4d81 00bc 78c9 bebd 50b8 083e 1f35 f5bd
000002b0: 4882 783c bc3b 1fbd b92f d2bd 8fe3 62bd
000002c0: 62e4 aebd 7019 073d 9f2b 8c3d 0df3 9d3b
000002d0: 05fa 153d 9592 e4bd 7403 c6bd 8343 ab3d
000002e0: 88c4 af3b e63e a73c 14ff 57bd 037e 20bc
000002f0: bbdd 05bc 8d4d a73c d7eb fe3d a5ef 803d
00000300: e347 933d bafb 17be 8ad1 97bd b4d6 dabd
00000310: 00a0 163d c1f1 a43d d280 0abd 46c4 a23d
00000320: 5a59 843c fc51 0fbe 38fd 803d b7f9 a23c
00000330: 7656 81bd 9f17 113e 5da7 073d 711a 8c3d
00000340: d151 b33d 85bc 3d3d 160a debb b30b 833d
00000350: 46b7 4b3c 2fba 9c3c 0f28 d23d d752 70bd
00000360: 7b5f 2cbe 3d5e 083c bbf6 6abc 20c1 fb3c
00000370: 4917 fe3d 7dcb 713d 63ef f93d 9bc9 fc3d
00000380: 46c7 633d c1aa 063d 703b 87bc af6c b3bc
00000390: de28 99bb 4005 ae3d aca2 d1bd 4b0d a1bd
000003a0: 5650 8e3d 397a 02be 6c48 a5bc 2cbd 813d
000003b0: 82b0 97bc 4701 e1ba 6766 e53d ccbe a4bd
000003c0: a720 063e a21f 9abd a660 563d c91d d8bd
000003d0: 27d1 173c 8b16 32bc 5be3 81bc 3f8a e83d
000003e0: f44d 1fbc 561e c93b a0dd 0e3d b8a9 343d
000003f0: 0346 d7bd 38ba 92bd 6ea2 b2bd 6eb2 d53c
0.049013704 -0.032512482 0.09799061 0.0810926 0.0931264 0.0041365004 0.025697302 0.11948463
-0.00019513088 -0.09992662 0.13960963 -0.018382702 0.049480963 0.0254273 -0.04821118 0.033404224
0.009556628 -0.033331543 0.074859016 0.04455381 0.009065154 0.04094443 0.054746065 0.06268338
-0.064408645 -0.0591574 0.07454656 -0.041129313 0.056516934 -0.011555868 0.0415929 0.08992093
0.089008294 -0.05792156 0.0030840521 0.04192827 -0.020411404 -0.0822068 0.10659496 0.1053418
0.04984192 -0.032001846 -0.03194547 0.09836692 0.06426874 0.033905867 0.07421037 -0.08681304
-0.07074968 -0.037506137 0.096168466 0.09553932 -0.06300741 0.104648046 -0.12615831 0.00851199
-0.07620313 -0.11611961 -0.0264777 0.019770192 0.08434917 -0.12800233 0.050634857 0.050184585
0.0345402 -0.09256904 0.10298052 0.00082007877 -0.10821371 -0.00105876 -0.045350056 -0.060004443
0.042327404 0.105369404 0.103340484 -0.03758172 -0.0770261 0.08965815 0.0037798632 0.12431243
-0.06853386 0.031943664 -0.012522407 -0.14113237 0.06857573 -0.052339405 0.09453062 0.038772132
-0.10500404 -0.06704659 0.060719848 0.03973035 0.10219414 -0.15202488 -0.040410213 0.009988254
-0.018281462 -0.010527559 -0.029696697 -0.060492575 0.01977057 0.009726924 -0.022823475 -0.07533005
-0.10047168 0.124676496 -0.03140895 6.6576176e-06 -0.10721037 -0.07723261 -0.048220925 -0.050037205
0.00033168902 0.017051734 0.11299837 0.012519625 -0.100669175 -0.095596954 0.1326188 -0.043056745
-0.043811634 0.12818192 -0.089589365 0.04327413 -0.057838995 -0.04233461 -0.11185335 -0.026440384
0.016951237 -0.088353276 -0.04558006 0.064445294 -0.012765392 -0.026688077 0.045919433 0.10352018
0.042475622 -0.011594414 -0.0068332246 -0.08862562 0.027091822 0.028104527 0.1246664 -0.0057436335
0.0062981634 0.016620947 0.1074051 0.047263023 0.11183915 -0.05190559 0.0189327 0.1123435
0.048623897 0.053253524 -0.0026805475 -0.108682245 0.06507079 0.04837041 -0.11650847 -0.029873675
0.09011816 0.062111463 -0.043512527 0.059395008 0.014630595 -0.09696899 -0.09466164 0.107396394
-0.007843328 -0.09315771 0.1335156 -0.11973023 0.01516778 -0.038875327 -0.102630086 -0.055392798
-0.08539654 0.032983243 0.068442576 0.0048202337 0.03661539 -0.11160771 -0.096686274 0.08362486
0.0053640045 0.020415734 -0.052733496 -0.009795669 -0.00817054 0.020422721 0.12447327 0.062957086
0.07191446 -0.1484212 -0.07413013 -0.106854826 0.03677368 0.080539234 -0.03381426 0.079475924
0.016155887 -0.13996118 0.06298298 0.019894464 -0.06315319 0.14169167 0.033118594 0.06840981
0.087558396 0.046322364 -0.0067761047 0.06398716 0.0124338325 0.019131748 0.10261547 -0.058672752
-0.16833298 0.008323249 -0.014341052 0.030731738 0.12406785 0.059031952 0.122038625 0.12343141
0.055609964 0.032877687 -0.016507834 -0.02190241 -0.004674061 0.08497095 -0.10236105 -0.078638636
0.069489166 -0.12741937 -0.020176135 0.0633491 -0.018516783 -0.0017166518 0.11201172 -0.08044204
0.13098393 -0.07525565 0.052338265 -0.10552556 0.009266174 -0.0108696325 -0.015855482 0.11354493
-0.009723175 0.0061376495 0.034879327 0.04410717 -0.105114006 -0.07164425 -0.08722387 0.026086058

sequential/conv2d_2/Conv2D f4 [64, 3, 3, 32]
00000000: 849b a73d c879 ea3c 1a9e ab3d 0bb8 0c3e
00000010: a39c c7bd 4fcf c73b ea5c ea3d 8428 3e3d
00000020: 75db eabc cc16 fabc 9d60 0dbd 4266 4fbc
00000030: 6d5b 5f3d 55f4 8fbd e455 603d 6aa9 7b3d
00000040: b72a 5f3d 772d 553c 5fbc 783d 35d8 dd3c
00000050: 7d26 2e3d e82c 42bd 1838 04bd 144b 653d
00000060: 4d72 443d 36b7 683d 7486 993d 505b 4d3d
00000070: 5117 db3c 94eb cb3c 7075 d83d e25e d43d
00000080: f9e0 2d3d 086e fdbc 0286 31bd 0b24 6a3d
00000090: fd93 6e3d 28b2 7dbc ccdc ea3d 7f48 903c
000000a0: c64b 063e 7703 be3d cc07 383c 7176 a8bd
000000b0: 9aad 50bd cdf4 1cbc 4150 adbd b03b 833d
000000c0: 3293 9f3c dbce d83c a300 ac3c d8af 8b3d
000000d0: 3367 9abc b959 963d 7ec2 073d fa2b d63c
000000e0: 3566 413c 03a4 47bd 3b7f 1f3d 1d58 b0bd
000000f0: 746e 0dbd 0207 3c3d 1e34 873d 8fd2 243d
00000100: f3d8 f13d e8b6 993d 164c 873d b4b1 8d3d
00000110: b69a ed3b 2573 1e3d fa0e 113e ae26 f33c
00000120: df75 cebc 79ce 113d e17f 16bd a559 18bc
00000130: 2035 31bd fd4b 19bd 39c5 223d 6c3c c13d
00000140: e81c c3bd 43b6 75bd 9fdd c1bc 88bb acbd
00000150: 3d3f 403d 6e22 09bd 1574 81bd a1db 5d3d
00000160: ca50 9a3d 11d0 ee3c a908 71bc 1d50 dcbb
00000170: ecd5 70bd 04b0 4f3d ee35 b83d 25a4 d1bc
00000180: afb0 8dbd 272d f23c 83e9 40bd 18cc f5bc
00000190: bfd3 c3bd e0a6 8a3d 6616 c43d 7eec c6bc
000001a0: 078d b03c 961f 793d 6f55 b5bd e50a bcbd
000001b0: c0d2 5d3d 06cf db3d 138b 883d c265 1abd
000001c0: f78d c83c 3021 373c 7348 77bd 8403 9c3d
000001d0: 9e11 8bbd 0ca7 8bbd b023 a6bd f333 8abd
000001e0: 3a12 d8bc 49ff 02bd 1a9d 91bd 3d11 57bd
000001f0: 9835 27bd 6433 303d cef1 b93a ca89 b23c
00000200: 2459 37bd 2306 a73c 4915 95bd f298 803d
00000210: 7542 fc3b 4ed7 db3d 41af 493d 38c0 93bd
00000220: a620 d9bd 747b ed3b 946c c53d d83a 70bd
00000230: 5863 e63c 20da 85bd 3cee 1fbd cdeb a83c
00000240: de84 94bd 47bb 213d 6439 d03c b5f4 87bd
00000250: e3e5 bfbc e468 58bd e368 d2bb ac79 14bd
00000260: d60c 0c3b 710f 4abc 7471 69bd 2d7b 14bd
00000270: 56a6 0fbd 3ecb 0bbd 616f 11bc 2bc1 043d
00000280: 5905 07bc 9333 77bd c5c4 8bbd 1186 b9bb
00000290: a655 d53c 3530 d73d 6360 ad3d c11e 9fbc
000002a0: a1ef 0e3d b50d acbd 2a87 c43c 3d6b ccbc
000002b0: 559c b33c 1bb8 5e3c fb1e 173e b216 9c3a
000002c0: 861c 0cbd b815 0cbd a67e 91ba da62 43bd
000002d0: 04b5 4bbd 402b 883c 8490 aebd be97 1ebd
000002e0: 1a4a 3fbd e441 3abd 45d4 c03b 8246 ebba
000002f0: e5ca 68bd 75dc 333d 59c6 abbd 2d0f 8e3c
00000300: e68f 9f3b 70ce 8c3d 19ca ae3d 44c8 ed3c
00000310: 1967 2dbd 423d 06bc 51ae 2dbd 093c 0a3c
00000320: d085 37bd 7370 73bd e038 843c 0206 65bd
00000330: b37a 4ebc 8c25 95bd b891 a23d 0242 42bd
00000340: 2eac 813d dfee 52bd 0316 f1bd e45d e73b
00000350: 218a 81bd 5dfe 143d 3de4 9abd 0177 3ebd
00000360: fa4b 093d 795b cd3d 0154 85bd 65af 973c
00000370: 1dde e13c d496 afbd 3bc2 4b3d 32dd 0fbd
00000380: 9ad8 cdbc e911 d7bc f195 f23d bf72 263d
00000390: a3e1 cb3d e192 c23c 5637 98bc 2299 09bd
000003a0: fc68 ebbc 2f1f 18bd ac24 ccbd 9a9c 943d
000003b0: aca9 693d 43c5 543c 3840 49bd a2a2 2fbc
000003c0: 67ba 5a3d 1b9c b2bc bc7f ac3d c787 88bb
000003d0: b7cb 33bd 7622 293b 3526 033d 06bf 233d
000003e0: fad9 0bbd 8d2e 87bd 4231 703d 92e7 bdbd
000003f0: 5847 783d 647e 8f3d 8296 853d 56f8 9c3d
0.08183959 0.028622523 0.08379765 0.13742082 -0.09746673 0.006097711 0.11443503 0.046425357
-0.028669098 -0.030528449 -0.034515966 -0.0126586575 0.05453055 -0.070290245 0.05476941 0.061440863
0.054484095 0.013011328 0.06072652 0.027080635 0.042517174 -0.047406107 -0.032280058 0.055979803
0.04796057 0.05681535 0.07496348 0.05013591 0.026744517 0.024892606 0.105692744 0.1036966
0.04245088 -0.030936256 -0.04334069 0.05716328 0.0582466 -0.01548437 0.11467895 0.017612694
0.13114843 0.092780046 0.011232328 -0.08225716 -0.05094681 -0.009579849 -0.08462573 0.06407869
0.019479368 0.026465824 0.020996397 0.06820649 -0.018848037 0.07341332 0.033144467 0.026144017
0.011804153 -0.0487404 0.038939696 -0.08610556 -0.034529164 0.04590512 0.066017374 0.040239867
0.11808958 0.0750559 0.06606309 0.0691866 0.007251109 0.03868403 0.1416587 0.02968153
-0.02520269 0.0355973 -0.03674305 -0.009298717 -0.043263555 -0.037425984 0.039738867 0.09435353
-0.09526998 -0.05998827 -0.023665247 -0.08434206 0.04693531 -0.0334801 -0.06320969 0.054164533
0.075349405 0.029151948 -0.014711537 -0.0067234174 -0.05879776 0.05070497 0.08994661 -0.025590966
-0.06918465 0.029562546 -0.047097694 -0.030004546 -0.09561872 0.0677011 0.09574585 -0.02428269
0.021551622 0.06082114 -0.08854186 -0.091817655 0.054156065 0.10732846 0.06667151 -0.0376947
0.024481757 0.011177346 -0.060371827 0.07617858 -0.067904696 -0.06818971 -0.081122756 -0.0674819
-0.026375879 -0.03198174 -0.07110043 -0.052506674 -0.040822595 0.04301776 0.0014186443 0.021794219
-0.044762745 0.020388668 -0.072794504 0.06279172 0.007698352 0.107344255 0.0492394 -0.07214397
-0.1060193 0.007247383 0.0963985 -0.058649868 0.028123543 -0.06535745 -0.039045557 0.020620251
-0.07251905 0.039485242 0.025417991 -0.06638471 -0.023425048 -0.052834406 -0.006421195 -0.036248848
0.0021369956 -0.012332783 -0.056992963 -0.036250282 -0.03507074 -0.034129374 -0.008876652 0.03241078
-0.008241021 -0.06035192 -0.0682464 -0.005661734 0.026041817 0.10507242 0.0846565 -0.019423844
0.034896497 -0.08401052 0.023990232 -0.024953479 0.02192513 0.013593699 0.14757912 0.0011908619
-0.03420689 -0.0342004 -0.0011100366 -0.047701694 -0.049733177 0.016622186 -0.08523658 -0.03871893
-0.046701528 -0.045472994 0.0058846795 -0.001795009 -0.05683412 0.043911416 -0.08387441 0.01734122
0.004869449 0.06875312 0.08534641 0.029026158 -0.04233465 -0.008193316 -0.04240257 0.008437165
-0.044805348 -0.05943341 0.016140401 -0.055913933 -0.012602496 -0.07282552 0.0793795 -0.04742623
0.06331669 -0.051497336 -0.117717765 0.007060753 -0.06325174 0.036375392 -0.07563064 -0.04650021
0.033519723 0.10027213 -0.06510163 0.018516252 0.027571732 -0.0857369 0.04974578 -0.035123058
-0.025127698 -0.026253657 0.11845005 0.040636774 0.09955146 0.023751678 -0.018581074 -0.033593304
-0.028736584 -0.037139114 -0.09967932 0.07256432 0.057046577 0.012986484 -0.04913351 -0.010719927
0.053400423 -0.021802953 0.08422801 -0.0041665765 -0.04389545 0.0025807894 0.03201886 0.039977096
-0.034143426 -0.06600676 0.058640726 -0.09272684 0.060614914 0.07006529 0.06522848 0.07664554

sequential/conv2d/Relu;sequential/conv2d/BiasAdd;sequential/conv2d/Conv2D;conv2d/bias f4 [16]
00000000: 2e20 cabc ce69 f93d 32d5 29bc acc2 8e3d
00000010: b73d 46bd 4828 79bd b4dc d33d b498 12be
00000020: a4d5 9d3d 3b94 2b3e 218c d8bc cc43 92bb
00000030: 1d3d b1bd a314 763c 6880 61bc ea1b a7bc
-0.024673548 0.12178384 -0.010365771 0.069707245 -0.0483987 -0.06082943 0.1034483 -0.14316064
0.07706764 0.16755764 -0.026434006 -0.0044636484 -0.086542346 0.015019569 -0.013763525 -0.020399053

sequential/conv2d/Relu;sequential/conv2d/BiasAdd;sequential/conv2d/Conv2D;conv2d/bias1 f4 [16, 3, 3, 1]
00000000: be87 513e 80bc e9be ba07 ad3e 5e15 ab3e
00000010: 23b3 58bb 21f5 aebe 473a 043f b007 b1be
00000020: 3332 b43e eb4d dfbd 98e4 a43d 09d9 d93c
00000030: c938 33be bdc2 8ebe 80f5 44be 970d b5be
00000040: cd3d 4cbe 612e b5be 37a4 13be 0d7a 513e
00000050: 2c3b 603d 5318 373e 7256 63be 130f f83e
00000060: ea36 b5be f9b0 0d3f aa8e 59be 4764 9abd
00000070: 8ede 88be c1bc b2be c1e2 50bd c789 483e
00000080: 49bd cbbe a42b 5d3e 8d59 973e 9128 85be
00000090: d328 dcbe 269b b33e deb6 d43e b573 043f
000000a0: f7f6 103f 7522 9abd 672d 98bd 49aa 7e3e
000000b0: 140d 3b3d c07d 983e 82ed f73d 441f fb3e
000000c0: cf2f 9f3e 083c 843e fb11 8abd c087 a43d
000000d0: 224a a63d 1290 983e 6640 933e 8ed0 c8be
000000e0: c99a 43be 0b3b 29be ef19 86be 5296 d6be
000000f0: 0435 613e 37a2 bcbd c666 5d3d 5050 043f
00000100: 880e 863e a64b 5c3e fada f13e 46c9 dc3c
00000110: 599d d83e 1d0e dd3e d376 91bb 8756 643d
00000120: c3fd 92be 1643 e73d a2e3 72be b9b2 6cbd
00000130: 3ec3 97bd 3be3 833e 65a1 b9be 4360 9ebe
00000140: 2694 303e 6fa9 a8be 12b7 45be bc44 a63e
00000150: c09a babe f0ab bcbe c17d 163e 45d4 c0be
00000160: a307 aebe 928a 5bbe 2cdb 17be d5ee 4c3e
00000170: 9835 083f d4d8 9a3e 6656 aa3d 8aba 4fbe
00000180: 9283 023e f19c 7fbe ce6f ed3e 575d 923e
00000190: d95d 75be b8e9 fdbe 48fa 0bbd 30be 883e
000001a0: f94e 4c3e c74f 9cbe a89e 863e 20dd ce3e
000001b0: 1696 bfbe 1045 e43e 0390 d03e 779e 36be
000001c0: 5b7c 083f fb05 f23c dbc4 fc3e c0f9 b23e
000001d0: b124 bb3e 5530 ef3d 8a96 90bd 1a50 0f3e
000001e0: 30bc efbd 4f31 37be 59c6 dcbe 9479 0d3f
000001f0: e8a2 20be f5cd 2a3e e5fa 1e3e 94ee 0e3f
00000200: 0597 c53c e75a 293e 0ae4 743e c2d0 dabe
00000210: 71ae 223e 06fa 363e 3e62 afbe d08b 053f
00000220: bcfe 8abe 9a54 3abe f6a1 c63e ef4b 0c3f
00000230: a8ee de3e c63d 963d 00b7 5b3d 6d54 dbbe
0.20461938 -0.45651627 0.33794957 0.3341474 -0.0033065758 -0.34171394 0.51651424 -0.34576178
0.3519455 -0.109035335 0.08051413 0.026592748 -0.1750213 -0.2788295 -0.19234276 -0.3536193
-0.1994545 -0.35386947 -0.14418112 0.20456715 0.05474393 0.17880373 -0.22200945 0.48449
-0.3539346 0.55348164 -0.21245828 -0.07538658 -0.26732296 -0.34909633 -0.0509975 0.19583808
-0.3979285 0.21598679 0.2956051 -0.26007512 -0.42999896 0.35079306 0.41545767 0.51739055
0.5662684 -0.075261034 -0.07430535 0.24869646 0.04566677 0.2978344 0.12105848 0.4904729
0.31091163 0.2582705 -0.06741711 0.08033705 0.081196085 0.29797417 0.2876007 -0.39221615
-0.19102015 -0.1652643 -0.2619166 -0.4191156 0.2199288 -0.092106275 0.05405309 0.5168505
0.2618296 0.21513233 0.47237378 0.026951443 0.42307547 0.4317483 -0.004439214 0.05574658
-0.2870923 0.112920925 -0.23719648 -0.05778763 -0.07410286 0.257593 -0.36255947 -0.30932817
0.17244014 -0.32941768 -0.19308117 0.32474315 -0.3644619 -0.36849928 0.14696409 -0.3766195
-0.339902 -0.21439579 -0.14829701 0.20012982 0.5320678 0.30243552 0.083172604 -0.20286003
0.12745503 -0.24962212 0.46374363 0.28586838 -0.23961581 -0.49592376 -0.034174234 0.26707602
0.19952 -0.30529615 0.2629292 0.4040308 -0.37419194 0.4458394 0.40734872 -0.17833887
0.5331475 0.029543867 0.4936894 0.3495617 0.3655143 0.116791405 -0.07059963 0.139954
-0.11705816 -0.17889903 -0.43120077 0.5526364 -0.15687144 0.16680129 0.15525396 0.5583279
0.024119863 0.16538583 0.23915115 -0.42737395 0.15886857 0.17868814 -0.3425464 0.5216646
-0.27147472 -0.18196335 0.3879544 0.54803365 0.43541455 0.07336001 0.05364132 -0.4283785
