assets/tf_lite_model.tflite (tflite, 229972 bytes, 10 tensors)

sequential/dense/BiasAdd/ReadVariableOp f4 [128]
000000 b3 2f 3e 3b 2b 38 e3 3b 61 80 dc bc cc 3e 05 bb
       0.002902013 0.006934186 -0.026916685 -0.002033162
000010 88 5e 30 3b 64 20 92 bc 2a 1d b1 bc 92 05 2f 3d
       0.0026911814 -0.01783771 -0.021620352 0.04272992
000020 9a 4e 09 bc d1 4b 9c bc 2a 3e 05 3c 24 34 0c bc
       -0.0083805565 -0.01907912 0.008132497 -0.008557353
000030 d2 d0 c5 3c 8a c8 df bc 37 f3 7c bc e7 d7 a2 bb
       0.024147425 -0.027317304 -0.015438846 -0.004969585
000040 3e 49 64 3c 24 ce 95 bc 49 b5 c5 b9 3b 6e 0d 3d
       0.013933478 -0.018286772 -0.00037709836 0.034528952
000050 fb c7 a9 3c 32 cd a7 3c ee f7 3f bc 5c b2 1b 3b
       0.02072524 0.020483587 -0.011716826 0.0023757434
000060 c4 6c 3a bc 75 16 15 bc 1c 8e 02 bc 74 b4 7f 3c
       -0.011378471 -0.009099592 -0.007968452 0.015606988
000070 26 80 4a 3a e6 e9 e5 3c e2 0e af 3b b5 62 94 bc
       0.0007724784 0.028065633 0.0053423503 -0.018113473
000080 9d 4a e1 3b 0a a8 0c bb 40 b8 ab bc 26 2f 22 3d
       0.0068753497 -0.0021462464 -0.02096188 0.039595746
000090 e6 53 b1 3c e8 bf 05 3c 35 d5 2f bc c7 3e 3a 3d
       0.021646451 0.00816343 -0.010731985 0.045470025
0000a0 26 44 4c bc 38 6f 04 3c 17 13 a9 bb 65 11 d4 bc
       -0.01246742 0.008083157 -0.0051597464 -0.0258872
0000b0 68 e1 00 bd ed 3f 90 3c 80 de 6f bc 15 b9 5e 3c
       -0.031464964 0.017608607 -0.0146404505 0.013593932
0000c0 b9 4b e6 bb 50 07 a7 3c 13 66 2a bc fe 73 34 bd
       -0.00702807 0.020389229 -0.010400313 -0.04405593
0000d0 64 32 a6 bc 28 97 27 ba 5f 60 29 bd f3 8e fd b9
       -0.0202877 -0.00063930685 -0.041351672 -0.00048362426
0000e0 2c 33 44 bc 96 18 59 3d 5f c3 df bb af e7 0e 3d
       -0.011975091 0.053001963 -0.00682871 0.03488892
0000f0 ab 26 7d bc fe bd cd ba 53 2b 22 3d e0 9f a3 3c
       -0.015451114 -0.0015696881 0.0395921 0.019973695
000100 f3 b0 18 bc 23 1b 9f bc 35 5e 0d 3d 0e 7e 1c bb
       -0.009319532 -0.01942212 0.03451367 -0.0023878845
000110 87 f1 0e bc 8b 9d b8 bc 35 89 81 3c 8a 45 d6 3a
       -0.008724577 -0.02253606 0.015812496 0.0016347629
000120 7d 91 99 bb 7f a1 0f 3d 12 1e 86 bc 01 9a bf ba
       -0.004686533 0.035066124 -0.01637176 -0.001461804
000130 57 93 aa bb c5 00 00 3c 04 27 3c 3c 29 63 4f 3d
       -0.0052055526 0.0078126835 0.011483911 0.050631676
000140 f4 1f 3f 3d dc 15 b5 bb 5f 97 c0 bc 7a 7e 9b bb
       0.046661332 -0.0055262875 -0.02350968 -0.004745302
000150 46 ec 96 bc ff c9 e4 bb 77 b1 b6 3c bd 9e ad bc
       -0.01842321 -0.0069820876 0.022301419 -0.021193856
000160 3f ac 0e 3d 55 25 09 3c 78 d8 eb bb 35 95 2d bc
       0.034832235 0.008370717 -0.007197436 -0.010594656
000170 13 d6 01 3d fe 24 3a bc a2 ae 5e 3d c7 27 5d bc
       0.031698298 -0.011361359 0.05436576 -0.013498253
000180 29 bb a8 bc 59 00 41 3c 78 a3 4c 3d 4f 5b 39 bc
       -0.020597057 0.011779868 0.049960583 -0.011313274
000190 0e 05 c2 bc c4 b6 fa bc c6 e1 0d bd d2 9c ae bb
       -0.02368405 -0.030604728 -0.034639142 -0.005328753
0001a0 2c fc a1 bb 93 e9 4a bc 9f 46 75 bc ec 33 e1 bc
       -0.0049433913 -0.01238479 -0.014970451 -0.027490579
0001b0 58 c1 1e 3d 62 d9 c1 3c 9c ca 3d 3c 47 f4 a1 bc
       0.038758606 0.023663227 0.01158395 -0.0197698
0001c0 92 df af 3b 5a 29 9d bc d0 7e 9a bb ca 70 1d bc
       0.005367228 -0.019184757 -0.0047148243 -0.009609411
0001d0 f8 64 8f bc fe ec a6 3b 8b a4 92 bc 93 85 8d bc
       -0.0175042 0.0050941696 -0.017900726 -0.017275607
0001e0 40 cf 84 3c 3f 58 dc bb 6f b8 95 bb e3 38 73 3c
       0.016212106 -0.006724387 -0.0045691053 0.014845106
0001f0 86 7b 81 bb 1c ed 66 bc 1a 85 11 3d 2b 18 99 bc
       -0.0039514927 -0.014094617 0.035527326 -0.018688282

sequential/dense_1/BiasAdd/ReadVariableOp f4 [2]
000000 9b bd e0 bc 9e bd e0 3c
       -0.027434161 0.027434167

sequential/conv2d_2/BiasAdd/ReadVariableOp f4 [64]
000000 30 9f 5d 3c 4a fb 23 3d 2e ae 89 bc ca 4d 3e bb
       0.013526723 0.04003457 -0.016806688 -0.0029038065
000010 e0 a4 47 bc 8d 8b 13 3b c1 96 b9 bb 0e 4b f5 bb
       -0.012185305 0.0022513599 -0.005663723 -0.007485754
000020 f2 5d ae bc 42 b8 82 bc f1 f8 ad bb 84 4b 7a bc
       -0.021285031 -0.015957002 -0.005309217 -0.015276793
000030 c2 4e 2a bc 4b 99 de bb e8 e6 c7 bb 49 3d b9 bc
       -0.010394754 -0.0067931763 -0.006100524 -0.02261223
000040 49 13 89 bc 50 97 8a bc 72 7c 01 bb 96 27 c2 ba
       -0.016732829 -0.016917855 -0.0019758013 -0.0014812823
000050 c3 c1 f1 bb 36 6e 8e bc 9b 2a 6f bc 11 76 09 3d
       -0.0073778345 -0.017386537 -0.01459756 0.033559863
000060 01 a8 c5 3b 7b c1 09 bc c9 02 7b bb 13 4c ef bb
       0.0060319905 -0.008407946 -0.003830122 -0.00730277
000070 91 ce 64 bc 95 aa f2 3b 6d ae 54 3b 91 34 f1 3c
       -0.013965265 0.007405589 0.0032452599 0.02944401
000080 0b e4 a2 bc 5b 66 71 bc 51 71 0e bc 24 56 c2 bb
       -0.01988413 -0.014733876 -0.008694009 -0.005930679
000090 3b c2 94 3b a7 27 b6 ba 95 57 76 3c 9c ba c9 bb
       0.0045397556 -0.0013897315 0.01503553 -0.006156279
0000a0 1c c9 80 bc 67 1c 69 bb 92 16 82 bc e8 21 ff bb
       -0.015720896 -0.0035569908 -0.015879903 -0.0077860244
0000b0 0c 7f de bb 30 0a e4 bb 21 da 44 bc 95 2f 95 3b
       -0.0067900475 -0.0069592223 -0.012014897 0.0045527914
0000c0 bf 76 a1 bc f6 16 68 bc eb eb fa 3b 3a b6 dc bb
       -0.019709943 -0.014165631 0.007657518 -0.0067355903
0000d0 ed 3a 28 bc b5 bb 75 bb b8 fc 1a bc 4a 8d 2e bc
       -0.010267955 -0.0037495915 -0.009459667 -0.010653803
0000e0 30 5b 26 3c 17 58 44 bc 21 12 b1 3c aa 35 01 bc
       0.010153577 -0.011983893 0.02161509 -0.00788633
0000f0 71 82 51 bc 88 fd a4 38 cd b9 5f bb dc 63 bf bb
       -0.012787447 7.867353e-05 -0.0034137846 -0.0058407616

sequential/conv2d_1/BiasAdd/ReadVariableOp f4 [32]
000000 31 51 7b 3c 33 1e b6 bc 6d 2c be 3b dd be 09 bc
       0.015339182 -0.022231197 0.005803636 -0.008407322
000010 94 0c 12 bc a4 13 6f bb 79 f7 b5 3c db bc 0f bc
       -0.008914132 -0.0036480213 0.02221273 -0.008773054
000020 a0 b2 b8 ba 59 5a 76 bb 8a 18 78 bb ba 90 98 bc
       -0.001409132 -0.0037590472 -0.0037856423 -0.018623699
000030 2d af 66 bc 10 1d 79 bc 37 3f 42 bb 7e 1a a6 bb
       -0.014079851 -0.015204683 -0.002963973 -0.005069076
000040 6f 1b c6 bb 74 fc 83 3c d6 27 64 bc 4c fe ff bb
       -0.006045751 0.01611159 -0.013925513 -0.007812297
000050 6b 63 d6 bc b9 a6 7a bc bc 4d c7 bb 2c 14 d4 bb
       -0.026170453 -0.015298539 -0.0060822647 -0.0064721312
000060 bc 10 06 bc 06 f5 e4 bb b5 a0 84 bc 60 39 16 bc
       -0.008182701 -0.006987217 -0.016189912 -0.009168953
000070 e3 9d 17 bc a8 fd 1b bc c7 0a 31 bb 84 3e 50 bc
       -0.009253952 -0.009520926 -0.002701448 -0.012710217

sequential/dense/MatMul f4 [128, 256]
000000 3a 59 94 3d b6 a0 cb bd 7a 14 83 3d 4f b7 60 bb
       0.07243581 -0.099427626 0.0640039 -0.0034288948
000010 8d b8 eb 3b 21 17 bc 3d 01 ab e1 3c a9 2c 85 bb
       0.007193631 0.09184099 0.027547361 -0.004064162
000020 11 5c bc bd 84 94 99 bd e8 72 dd bd 92 b3 5e bd
       -0.09197248 -0.0749903 -0.10812932 -0.05437047
000030 6e b9 f6 3d bc bd d6 3d 89 d2 f4 bd ef 8d af bd
       0.12047087 0.10485408 -0.11954219 -0.085719936
000040 f1 5a 41 bd db 58 34 bd 66 f4 3e bd 2c de ca bd
       -0.04720587 -0.04403005 -0.046619795 -0.09905657
000050 13 1c f1 3b 4b f7 43 3c 57 a4 35 bd 7d 6a d8 3d
       0.007358083 0.011960815 -0.04434618 0.10567186
000060 23 90 b3 bd d3 8a de 3c 3b 62 29 bd e5 87 b8 3c
       -0.08767726 0.027165806 -0.041353446 0.022525737
000070 3d d5 a3 bc 7e 3f 04 be e8 57 1b 3b 54 ff 12 bd
       -0.01999914 -0.12914845 0.002370352 -0.03588803
000080 5e 59 ba 3d 0b 19 f2 bb 6c 5f 02 3e 6a 2a 04 be
       0.09099077 -0.0073882393 0.12731713 -0.12906805
000090 e2 0a 29 bc 11 02 a9 bd b9 0f 22 bc 02 95 19 bc
       -0.010317536 -0.08252347 -0.009891444 -0.009373905
0000a0 5f 12 9d 3d de d4 a4 bd 8c b4 9b 3d 78 fb cb bc
       0.0766952 -0.08048414 0.07602796 -0.024900183
0000b0 80 20 e8 3d ab 0c 3f bd 77 9d e4 bd c3 b7 3a 3d
       0.11334324 -0.04664294 -0.111628465 0.045585405
0000c0 4a b5 a7 bd 94 c3 15 bd c5 ff 21 bd ee d8 5a 3d
       -0.08188875 -0.03656347 -0.03955056 0.053429537
0000d0 d8 39 5a 3d a3 28 2e bd 89 78 68 bd d3 54 03 3e
       0.05327782 -0.042519223 -0.056755576 0.12825327
0000e0 9d 89 22 3d 91 a6 d8 3d 4b 83 8d 3d 46 ed 41 bc
       0.03968202 0.10578645 0.06909808 -0.011836356
0000f0 b9 1a a2 bd 80 1a 13 3e 3c 10 b0 3d 31 73 57 3d
       -0.07915253 0.14365578 0.085968465 0.05260009
000100 ae 73 b8 3d d9 1a 8f 3d e9 83 5f 3d 3d 4a 9e 3d
       0.09006439 0.06987543 0.05456916 0.077290036
000110 30 00 97 3b b5 6c d9 3d c6 1f a4 3d 20 09 9f 3c
       0.0046081766 0.10616437 0.08013873 0.01941353
000120 53 be b6 3d f5 bb 4b bd 44 43 f0 bd 50 f3 f0 bc
       0.0892302 -0.049739797 -0.1173158 -0.029412895
000130 6a 67 c6 3c 3b 8a 5e 3c ad 67 e1 3d 4e 63 83 3d
       0.024219234 0.013582761 0.11006103 0.06415425
000140 95 65 95 bd e3 01 21 bd cf 50 93 bc a1 93 8e 3d
       -0.07294766 -0.03930844 -0.017982868 0.06961752
000150 ce de 7b bd 56 b9 38 3d b1 bb 4d 3d 32 f8 17 bd
       -0.06149178 0.045098625 0.050227825 -0.037101932
000160 43 95 e2 bd 92 a5 92 3d e4 9b 7d bd b3 bf 1b 3d
       -0.11063626 0.07160486 -0.061916247 0.038024615
000170 9a aa cd bd bc c3 62 bd 04 6e 24 bd 64 f3 b3 bd
       -0.10042305 -0.055362448 -0.04014398 -0.087866575
000180 f3 21 97 3b 4e fb aa bb 1a 8d 62 3d c9 29 0a 3d
       0.0046122014 -0.005217946 0.055310346 0.033731256
000190 72 43 8b bc 30 50 68 bd 4a ec d1 bd c6 41 03 bd
       -0.016999934 -0.056717098 -0.10250147 -0.03204515
0001a0 ee d9 93 bd c3 6b 8c bd 2a 3f 8d 3d 96 9e 8b 3c
       -0.07219301 -0.068564914 0.06896813 0.017043393
0001b0 c8 20 9b 3d a1 a2 d3 bd 11 ba 9b 3c db 22 c8 bd
       0.07574612 -0.103337534 0.019009622 -0.09772273
0001c0 f5 50 03 3e 12 00 6b bc 46 d5 95 3d 00 89 ee ba
       0.12823851 -0.0143432785 0.07316069 -0.0018198788
0001d0 ac 09 ab bd 90 5b b1 bd bf a5 87 3d 9f 8c 8f 3d
       -0.08351454 -0.08660042 0.066234104 0.07009243
0001e0 35 4f 0f 3e 1c 2f 92 3d d6 0b 06 3e 95 e3 a0 bd
       0.13995059 0.07137892 0.13090453 -0.07855908
0001f0 49 8d e1 bd 8f b2 9a bd a3 09 64 bd 3c cb 76 bd
       -0.11013276 -0.075535886 -0.055673253 -0.060252413
000200 bc 46 2e 3d e2 84 70 bc d7 67 8f 3d 86 50 b7 3c
       0.042547926 -0.014680119 0.07002228 0.022377264
000210 2f 55 c9 3d d0 1c 6b 3d ad 51 da 3c c1 01 cd 3d
       0.098307006 0.057400525 0.026650274 0.100101
000220 43 e9 cd 3d 7d a4 2d bc 48 b3 16 bd ba 08 98 bc
       0.10054257 -0.010598299 -0.03679207 -0.018558849
000230 0f b6 a4 3d c1 84 31 bd f0 3b d7 3c 9f 49 b8 3d
       0.080425374 -0.043339495 0.026273698 0.08998417
000240 f7 d0 01 3e cd 12 83 3d 73 46 03 3e d4 4b 26 3d
       0.1267737 0.0640007 0.12819843 0.04059966
000250 f1 92 81 3d 83 74 cf bc 2b a2 13 3e 13 10 66 3d
       0.06326855 -0.025324112 0.14417331 0.056167673
000260 51 b0 37 bd 30 ef 49 bd 7e 55 8a 3c 5d 78 91 3a
       -0.044845883 -0.049300373 0.016886469 0.0011098493
000270 5c 63 17 3e d9 3a b5 3d 69 b4 e3 3a 73 e7 c4 3d
       0.14783996 0.08849115 0.0017372492 0.09614458
000280 ea 86 75 bd bc 45 02 3e da a1 84 3d df 94 2e bd
       -0.059943117 0.12721914 0.06476183 -0.042622443
000290 92 41 4d bd 29 14 34 bc 90 72 e5 bc f1 65 9c bd
       -0.05011136 -0.010991135 -0.02800873 -0.07636631
0002a0 5b f2 77 bd 21 6b b3 3d 69 d8 43 bd 52 5f ff bc
       -0.060533863 0.087606676 -0.047813807 -0.031173382
0002b0 61 a9 04 3d 3e 0a 82 3b a0 de 21 bc ec df d8 bd
       0.032388095 0.003968506 -0.009879738 -0.10589585
0002c0 2f be 20 bd 58 3b 0b 3d d9 8a f9 bc 4e 10 dc bd
       -0.039243873 0.03399214 -0.030461716 -0.10745297
0002d0 dd 7d 07 3e 31 1f 8d 3d 24 3d 1f bd 68 52 fe 3d
       0.13231607 0.06890715 -0.038876668 0.124180615
0002e0 fc 95 98 bb 15 c5 21 bd 11 38 db bd fa 81 1e bd
       -0.0046565514 -0.039494593 -0.10704053 -0.038698174
0002f0 c2 d0 d6 3c a7 5b d9 bc fe f5 33 3d 59 23 1a 3e
       0.02622259 -0.026532961 0.04393577 0.15052547
000300 35 3d 44 bd e3 f8 25 3d d5 e9 de bd 4f 5c aa 3d
       -0.047909934 0.04052056 -0.10884444 0.08318388
000310 01 48 ad bc 69 fe 9d bd 27 13 10 3e cd 69 02 3e
       -0.021152498 -0.077145405 0.14069806 0.12735672
000320 77 2e ae bd 94 60 ea 3c c0 d6 7c 3d 20 98 da 3c
       -0.08504956 0.028610505 0.06172824 0.026683867
000330 43 84 05 3e 27 5c ae 3d 30 6a 00 3e 00 cd 7f bd
       0.13038735 0.085136704 0.12540507 -0.062451363
000340 a9 12 ab 3d 50 28 91 bd 1a 27 e2 3c 6a b3 0e 3d
       0.083531685 -0.07087767 0.027606536 0.03483907
000350 16 a9 bb 3b c1 df d9 bd 22 c9 87 bc e9 13 06 3e
       0.0057269437 -0.10638381 -0.0165754 0.13093533
000360 44 d6 92 bd 2a 89 dd 3d a9 01 3d 3d a8 e0 db 3c
       -0.07169774 0.108171776 0.04614416 0.026840523
000370 df 04 87 3c 0a 5d b6 3d 4f e8 74 3d 70 b2 62 bc
       0.016481815 0.089044645 0.05979186 -0.013836488
000380 ea 88 76 3d 9d 6a 7b bd df f0 37 3c 4a da db bd
       0.060189165 -0.06138097 0.011226862 -0.10734995
000390 59 80 80 3d 30 ef 8b 3d fd ff 12 3e 1d c0 ba bd
       0.062744804 0.06832731 0.14355464 -0.09118674
0003a0 33 0d 05 bd 80 5f ae 3d e3 bf 5e bd b3 ad 93 3d
       -0.03248329 0.08514309 -0.054382216 0.07210865
0003b0 b3 01 8c 3d 33 83 f2 3d 09 b4 f8 3d 6e 3a 74 bd
       0.068362616 0.118414305 0.12143714 -0.059626035
0003c0 26 e9 e3 bd 2f 6e b2 bd d8 e8 90 3c c1 74 ac 3d
       -0.11128454 -0.08712422 0.017689154 0.084207065
0003d0 0d 5c b2 bc 15 9c 45 3a cb 08 2b bb d8 b7 c8 3d
       -0.021772409 0.00075382116 -0.002609777 0.098006904
0003e0 64 fe ab bb be 96 60 bd 5f ae 47 3d 6d 42 05 3b
       -0.0052488316 -0.05483126 0.048750278 0.0020333782
0003f0 d2 1a f9 3d a3 39 da 3c 32 4f c3 3d 8a 90 f0 3d
       0.12163319 0.026638811 0.0953659 0.11746319

sequential/dense_1/MatMul f4 [2, 128]
000000 14 b4 31 3e 1e a8 50 bd a3 e7 85 3d c7 20 76 3d
       0.1735385 -0.05094158 0.06538322 0.060089853
000010 27 46 41 be 3a b6 32 3e 99 ee 36 3e ce 5a 85 bd
       -0.18874417 0.17452326 0.17864455 -0.0651146
000020 9b 86 d5 3d 4e b5 9c 3b cb 29 20 be cc 84 0c 3d
       0.104260646 0.0047823554 -0.15640943 0.034306332
000030 6e fe 81 bd 90 f8 c7 bd 89 96 23 3e 28 06 e6 bd
       -0.06347357 -0.097642064 0.15975393 -0.11231643
000040 88 75 7d 3d 1e e1 1e 3e 85 3d a2 3d ea 98 09 be
       0.061879665 0.15515563 0.0792189 -0.13437238
000050 3a f9 95 bc 00 a8 cd 3d bc df 1c be 48 fd 11 be
       -0.018307317 0.10041809 -0.15319723 -0.14256775
000060 f5 a1 07 3e 25 15 f3 bc 35 ca 1b 3e 59 35 ab bd
       0.13245375 -0.029673168 0.15213855 -0.08359785
000070 11 ea 7d bd 30 d9 23 bc e8 1e 9b 3d e2 1a 0e be
       -0.0619908 -0.010000512 0.07574254 -0.13877442
000080 47 fc 48 be 4e 00 bb bd 8a dd ab 3d f1 40 83 3a
       -0.19627486 -0.091309175 0.083918646 0.0010013861
000090 ac bf 2e be 16 66 bd bc de 95 a7 bc 10 ca 27 be
       -0.17065305 -0.023119967 -0.020457204 -0.16385674
0000a0 b6 bc 3d 3e fc 7a 92 bc 99 d7 51 3e dd d7 33 3e
       0.18529019 -0.01788091 0.204924 0.17562814
0000b0 c7 a3 19 bb 64 bb b1 bd bf 9c ce 3b 00 31 c6 3d
       -0.0023443566 -0.0867832 0.0063053067 0.09677315
0000c0 27 a4 48 be 73 f8 b0 bc f2 d6 a1 3d 84 38 2c 3e
       -0.19593869 -0.021602845 0.07902326 0.16818434
0000d0 c5 c0 8d bd be e4 7a 3d 4f 5f 65 3e cb db 30 be
       -0.069215335 0.0612533 0.22399639 -0.17271344
0000e0 ff 18 4e 3e f2 61 4a 3c 97 11 de 3c 89 12 37 be
       0.20126723 0.012352454 0.027107997 -0.17878164
0000f0 1a e9 1c 3e 76 a9 05 3e 0f 25 6a be 9b 55 35 bd
       0.15323296 0.13052925 -0.22865699 -0.044271093
000100 5b 50 0e 3e c6 52 8f 3d fe 0b 3d be b1 80 58 bc
       0.1389784 0.0699821 -0.18461606 -0.013214276
000110 19 ce 3f 3e 16 10 0b 3e be 7c e2 bd 1c 65 3e bb
       0.18730964 0.13580355 -0.11058949 -0.0029051965
000120 aa ac 3e 3e df 88 57 be 6f 08 dc bd 0a 16 b5 bc
       0.18620554 -0.21048306 -0.10743796 -0.022105236
000130 d7 ef 19 be 33 0f 1b be ad 4e 06 be 0d 08 c9 bd
       -0.15032898 -0.15142517 -0.1311595 -0.09815989
000140 ce 00 83 bd c4 d7 63 3c 29 73 29 3e 9e e0 2b 3e
       -0.06396638 0.013906423 0.16547836 0.16784903
000150 ac 87 73 bd 63 98 86 3d 14 a4 1d be 65 be 58 bd
       -0.05945556 0.06572034 -0.15394622 -0.05291595
000160 79 b8 8f 3c e0 f3 42 be dd 53 dc 3c 44 91 93 3d
       0.017544018 -0.19038343 0.026895458 0.072054416
000170 32 ab 47 be 80 77 59 bd a1 6b 7c 3a fa cb 22 be
       -0.194989 -0.05309248 0.0009629075 -0.15898123
000180 3b c4 03 be 80 a1 aa bc 36 de 43 be 68 2d 50 bd
       -0.12867825 -0.020828962 -0.19127735 -0.050824553
000190 13 6f 0b bd c3 2c 4e 3e a7 83 47 3d 20 1d c3 bd
       -0.034041476 0.20134263 0.048709538 -0.095270395
0001a0 3c 58 16 3d ec 99 fa bd 9e a6 d6 3d f3 bf 6a bd
       0.03670524 -0.122363895 0.104809985 -0.057311963
0001b0 38 bf 71 3c 22 60 55 be 67 55 4b be d0 51 2e 3d
       0.014755063 -0.20837453 -0.19856797 0.04255849
0001c0 8a 25 1e 3e e6 3b ac bc d5 f5 e3 bd 53 dc 4f be
       0.15444008 -0.021024656 -0.11130873 -0.20298891
0001d0 35 d9 20 3e 27 87 04 3d 34 fe a9 3d 36 14 4c 3e
       0.15707858 0.032355454 0.083004385 0.19929585
0001e0 e3 29 3e be a9 75 db bd dd 65 76 bd 36 0e 6a bd
       -0.18570666 -0.10715801 -0.06015574 -0.05714246
0001f0 2d bf 70 3d 1c cf a8 3d 39 c0 d9 bd d2 69 5e 3e
       0.05877607 0.08242628 -0.10632367 0.21720055
000200 aa 31 35 bd 13 6b 30 3e 8b 43 12 be 29 eb c5 bd
       -0.044236816 0.17228346 -0.14283578 -0.09663994
000210 da 70 0e 3e ca f8 f3 bd e8 eb a8 3d bf f6 48 3e
       0.13910237 -0.11912687 0.082481205 0.19625376
000220 52 56 11 bd 8d 79 85 bd 5c a0 18 be e1 d1 61 bd
       -0.035482712 -0.065173246 -0.14904922 -0.055131797
000230 5f 8a 2e 3e 88 23 d3 3d 22 28 3c be 0a 67 d8 bd
       0.17044972 0.103095114 -0.18374684 -0.10566528
000240 df e6 bf 3d 53 a4 df bd 53 8c ac 3d d0 e0 04 3e
       0.09370207 -0.10920014 0.08425202 0.12976384
000250 93 27 45 3e 16 fb 4f 3e 88 29 3d be 9d ce 52 3e
       0.19253378 0.20310625 -0.18472874 0.20586629
000260 ca 17 39 be f3 47 52 be b7 17 13 3e 4f 11 cf bd
       -0.18075481 -0.20535259 0.14364515 -0.10110723
000270 dd c3 92 3d 9d 18 68 3d a8 74 b8 bd b2 83 62 be
       0.07166264 0.056664098 -0.090066254 -0.2212055
000280 e0 94 24 be 04 75 a1 bb ba 03 55 bc 31 e8 60 3d
       -0.16072416 -0.0049272794 -0.013001377 0.054908935
000290 a4 32 be bd 6a da 4a be 50 36 ae bd f3 b9 2e 3e
       -0.09287003 -0.19809881 -0.08506453 0.17063121
0002a0 db 3a 01 be 27 3d 1f 3d 95 c7 78 3b f9 b8 15 3e
       -0.12620108 0.03887668 0.0037960757 0.14621343
0002b0 ec ac 00 be f6 fb c4 3c 0f 66 e6 bd 76 3c fc 3c
       -0.12565964 0.024045926 -0.11249935 0.030790549
0002c0 40 8a d1 3d 3d 41 00 3e 17 ad 85 3b f2 73 ed 3d
       0.10231447 0.12524886 0.004079472 0.115943804
0002d0 80 65 03 be fc d7 1c 3e f3 f4 fc bc 5c 16 ee 3d
       -0.12831688 0.15316767 -0.03087852 0.116253585
0002e0 d1 22 4e be 5d 69 59 3e 37 59 f7 3c e3 72 09 3e
       -0.20130469 0.21231599 0.030193908 0.13422732
0002f0 e3 44 bc 3d e5 c1 c3 3d 1e b7 72 bd 48 49 a1 bd
       0.091928266 0.09558467 -0.059256665 -0.078753054
000300 dd 3d 26 3e 7e bd 50 be 9a 19 89 3d 67 77 2a be
       0.16234536 -0.20384786 0.06694336 -0.16647111
000310 d4 4a eb 3d e3 12 67 3b 74 51 d1 3c 72 f5 ed 3d
       0.11488882 0.003525906 0.025551535 0.116190806
000320 93 4b 41 be 87 3f 47 3e 1c 6f 3a be 1f 7f 1f 3d
       -0.18876486 0.19457828 -0.18206447 0.03893959
000330 a1 f4 d0 3d 24 af 72 3d e9 95 44 3d 39 91 09 3e
       0.10202909 0.05924906 0.047994528 0.13434304
000340 8a f7 e9 3c b1 4c 73 3b 6c 1a e0 3d ad 43 97 3d
       0.028560419 0.003712457 0.109425396 0.07385955
000350 e1 a9 0d be e9 96 4d be a2 c4 67 be af 1e a5 bc
       -0.13834335 -0.20077099 -0.22633603 -0.020156233
000360 f2 a9 2f 3e 7e 3e 38 be f1 88 bd bc dd 7c f1 bd
       0.17154673 -0.17992589 -0.023136588 -0.11791394
000370 2b 1c 28 bc 76 d0 d3 bd 93 ce 12 3e c3 31 4b be
       -0.010260622 -0.10342495 0.14336614 -0.19843201
000380 65 a6 07 be 73 a2 d2 bd da 20 fa bc 6c 9e 6b 3d
       -0.13247068 -0.10284891 -0.030533243 0.05752413
000390 ee a8 0d be 8e ec 3c be a6 47 88 bd d2 43 02 3e
       -0.13833973 -0.18449613 -0.06654291 0.12721184
0003a0 ef 5a 53 3c ce e9 4d be 87 bd 93 bd 63 9c 9d bd
       0.012900098 -0.2010872 -0.07213884 -0.07695844
0003b0 2f 5b 58 3e 36 fb 33 bc c0 f8 15 3e 79 aa 0f 3d
       0.21128534 -0.010985186 0.14645672 0.035074685
0003c0 8b 27 27 3d e4 c0 30 be 73 14 44 3e 92 60 3c 3e
       0.040809195 -0.17261082 0.19148426 0.18396214
0003d0 ba 37 3e 3d 65 86 47 3e 72 39 01 be 45 5a 9e bd
       0.046439864 0.19484861 -0.1261957 -0.07732061
0003e0 24 f3 a1 3b aa cd 11 3e 8e 7d 4a be 8a 25 81 3d
       0.0049423147 0.14238611 -0.19774458 0.06305988
0003f0 18 6b 09 3c 05 af fe bd a4 68 60 3d b6 35 0c be
       0.00838735 -0.12435726 0.054787293 -0.13692364

sequential/conv2d/Conv2D f4 [16, 3, 3, 1]
000000 04 03 8d 3d 01 db 33 be 6e fa f6 3d ff 2b b7 3d
       0.06885341 -0.17564012 0.120594844 0.089439385
000010 12 35 4c bc ed f9 25 be a2 d0 28 3e 59 03 23 be
       -0.012463825 -0.1620862 0.16485837 -0.15919246
000020 28 00 17 3e a4 fa 17 bb 77 80 e1 3c c2 63 23 3d
       0.14746153 -0.0023190165 0.027527077 0.03989006
000030 90 a9 37 bd 97 f0 df bd 83 f9 6f bd 89 aa f6 bd
       -0.04483944 -0.10934561 -0.058587562 -0.12044246
000040 51 60 75 bd 83 85 fc bd ee 9e 79 bd 0a cd 6e 3d
       -0.059906308 -0.12330153 -0.060942583 0.05830101
000050 ec 2a e0 bb 87 3e f8 3c bf c5 13 be f4 39 2d 3e
       -0.006841054 0.030303253 -0.14430903 0.16916639
000060 5d bf 30 be 09 5a 36 3e 99 92 0c be b2 f7 94 3b
       -0.172605 0.17807783 -0.13727798 0.004546129
000070 6f e4 c5 bd b7 a9 bf bd 40 94 0d 3b ff 0d 9c 3d
       -0.09662711 -0.093585424 0.0021603256 0.07619857
000080 5c f3 09 be 12 6f 78 3d 30 b1 04 3e 5e b1 c2 bd
       -0.1347174 0.0606528 0.12958217 -0.09506486
000090 14 20 37 be 42 6b c2 3d eb fa 0a 3e f2 a4 39 3e
       -0.1788333 0.09493114 0.1357228 0.18129328
0000a0 4f 9b 3c 3e 15 fc a0 bd 96 39 57 bd c1 7a 7a 3d
       0.1841862 -0.07860581 -0.052545153 0.061152223
0000b0 8a 0b 94 3c e8 ef a5 3d e0 03 b4 3b ab 4b 17 3e
       0.018071909 0.08102399 0.005493626 0.14774959
0000c0 22 0e b3 3d f4 cb 34 3d da 31 e0 bd ee e6 46 3c
       0.0874293 0.044139817 -0.109470084 0.012140019
0000d0 42 0e 51 3d 71 0b 96 3d 26 b6 be 3d ae 97 27 be
       0.051038988 0.07326401 0.09312086 -0.16366455
0000e0 43 91 a0 bd f4 f1 92 bd 18 d3 a0 bd e5 3b 43 be
       -0.078402065 -0.07175055 -0.07852763 -0.19065817
0000f0 1d d2 1f 3d d1 e7 8f bd a5 b9 39 bc f8 ce 13 3e
       0.03901874 -0.07026637 -0.011335765 0.14434421
000100 ab ed 98 3d 8a 54 33 3d 7c 1d 02 3e 59 61 60 bd
       0.074672066 0.043781795 0.1270656 -0.054780338
000110 3e 1a 03 3e 1d 70 f4 3d 72 40 15 bd cb de 9c bc
       0.1280298 0.119354464 -0.036438413 -0.019149205
000120 c3 d7 d5 bd 1f 14 97 3d 50 eb db bd ea 31 0a 3c
       -0.10441544 0.07376885 -0.10738242 0.008434752
000130 6e b5 d7 bc 51 87 8b 3d 0f 6e f9 bd 10 59 17 be
       -0.02633163 0.06812919 -0.12179195 -0.14780068
000140 98 f9 27 3d ca cc 09 be c5 a4 29 bd 61 5a f7 3d
       0.041009516 -0.13457027 -0.041416902 0.12077785
000150 b5 f1 0a be 9a 1f c8 bd c2 9b 31 3d 25 d2 fc bd
       -0.13568766 -0.097716525 0.043361433 -0.123447694
000160 f4 d9 f2 bd 3b ff b7 bd f6 61 7c bd fb 5c 77 3d
       -0.118579775 -0.08984228 -0.06161686 0.060391407
000170 fa a3 49 3e b2 f3 e0 3d c8 16 16 3d a9 f1 dc bd
       0.19691458 0.10983981 0.03664282 -0.107882805
000180 17 7f 7c 3d d7 20 c3 bd 79 52 38 3e a9 9e 97 3d
       0.06164464 -0.09527748 0.18000211 0.07403309
000190 19 67 a9 bd 94 45 15 be b5 11 98 bd 5a de b7 3d
       -0.082716174 -0.14577323 -0.07425252 0.08977957
0001a0 fa 5d c5 3d 87 d3 35 be 6d f9 9f 3d d9 5d 24 3e
       0.09637065 -0.17756473 0.07811246 0.16051425
0001b0 4b 72 c3 bd 16 5e 1d 3e 37 3e 04 3e 19 ba a6 bd
       -0.09543284 0.15367922 0.12914358 -0.08140964
0001c0 7b cd 28 3e 43 11 45 bd 3d 4e 25 3e 6f 7e cf 3d
       0.16484635 -0.048112165 0.16143127 0.10131537
0001d0 c3 98 ce 3d 2b ec 34 3d ba 0b 4c bc ee 40 a9 3d
       0.10087731 0.04417054 -0.012453968 0.082643375
0001e0 9f 8c 3e bd 52 f5 6f bd 6d 6e 2f be af 0a 40 3e
       -0.046520825 -0.058583565 -0.17131968 0.18754075
0001f0 09 ae dc bd ae 31 9b bb cd 7f eb 3c c7 ee 34 3e
       -0.10775382 -0.004736147 0.028747464 0.17669211
000200 2a d2 b6 3c 96 d7 37 3d 0c be 67 3d 37 91 06 be
       0.02231701 0.044883333 0.056577727 -0.13141333
000210 64 22 35 3d 3c c9 2c 3d 87 b1 be bd 73 da 1a 3e
       0.04422225 0.0421841 -0.093112044 0.15122394
000220 5b c9 c3 bd 54 8d 04 be 65 42 d1 3d e0 94 47 3e
       -0.0955989 -0.12944537 0.10217742 0.19490385
000230 7d 7e 11 3e c3 35 d7 3b 4d 89 85 3c c5 54 42 be
       0.14208408 0.006567688 0.016300822 -0.1897765

sequential/conv2d_1/Conv2D f4 [32, 3, 3, 16]
000000 15 42 33 3d ae f8 1a 3c 76 8b a4 3d fa 75 c5 3d
       0.043764193 0.009458704 0.080344126 0.09641643
000010 74 40 7d 3d f6 96 94 bc a7 97 97 3d 3a 62 d9 3d
       0.061829045 -0.01813839 0.07401972 0.10614438
000020 0e 0b 32 bd f3 f7 aa bd db 3c ee 3d 7c 89 70 bd
       -0.043467574 -0.08348074 0.11632701 -0.058724865
000030 bd 10 9f 3c 78 fb 7e 3d cc 86 bc bd 9c b0 f3 3b
       0.019417161 0.062251538 -0.09205398 0.007436825
000040 31 3f f8 bc c4 60 a2 3c 75 e6 ca 3d 78 a7 55 3d
       -0.03030357 0.019821532 0.099072374 0.052161664
000050 ac a3 06 3b 43 87 67 3c da f9 10 3d 25 d8 e1 3c
       0.0020544333 0.01413137 0.035394527 0.027568886
000060 9a 0e a9 bd 9d 03 5e bd 13 1a 1f 3d 12 61 80 bd
       -0.08254738 -0.054202665 0.038843226 -0.06268515
000070 8d fe 4a 3d 94 8f 9b bc c5 3a a2 3c c6 ff 56 3d
       0.049559165 -0.018989362 0.019803414 0.05249002
000080 c0 49 bd 3d 4d ad 65 bd 05 8a 0f bd 3c e4 10 3d
       0.09242582 -0.056073476 -0.035043735 0.03537391
000090 05 1b 5e bd 07 ee ce bd 82 4f cb 3d 03 66 b3 3d
       -0.054224987 -0.10103994 0.09927274 0.087596916
0000a0 18 07 27 3d 82 e9 3a bd fc 1b 98 bc b6 1b 6a 3d
       0.04077825 -0.045632847 -0.018568031 0.057155333
0000b0 f7 2c 51 3d 3d 5a e8 3c 90 6e 45 3d 44 05 f7 bd
       0.051068272 0.028363341 0.048201144 -0.12061551
0000c0 3a 36 93 bd cd a4 1a bd ee fd a7 3d f5 41 e5 3d
       -0.07188077 -0.037754823 0.0820273 0.11194221
0000d0 ef 96 b6 bd 99 3f cd 3d e1 0e 6b bd 51 70 96 bb
       -0.08915507 0.10021896 -0.057387237 -0.004591026
0000e0 0e aa a7 bd f5 6b f7 bd 2d b2 50 bd f8 5f bb 3c
       -0.08186732 -0.12081138 -0.05095117 0.02287291
0000f0 0a 5e 63 3d 80 9c 8e bd 46 3a c9 3c 36 f7 37 3d
       0.055509605 -0.06963444 0.02456392 0.044913493
000100 50 b6 01 bc f6 7a 5a bd 93 fc dd 3d 39 5d 25 3d
       -0.007917002 -0.05333992 0.1083919 0.040372107
000110 bf 89 e0 bd 02 3f a9 bc de 5a 83 bd c3 a9 b9 bd
       -0.10963773 -0.020659927 -0.06413816 -0.090655826
000120 b3 39 c9 3c 65 36 90 3d 21 bd ab 3d 7a dd 5f bd
       0.024563646 0.07041625 0.08385683 -0.054654576
000130 de 89 7e bd 4a e0 af 3d 01 7a b3 bc 92 d2 cc 3d
       -0.0621432 0.085877016 -0.021908762 0.100011006
000140 29 83 80 bd 80 e2 8b 3d 6d e5 21 bd 2b 18 d0 bd
       -0.06275017 0.06830311 -0.039525438 -0.1016086
000150 4e 55 28 3d 72 79 8f bd aa 92 e2 3d 7f b8 03 3d
       0.041096978 -0.07005586 0.1106313 0.03215837
000160 5d 8b d0 bd ae 2a 45 bd 14 4f 4c 3d 39 f8 1d 3c
       -0.101828314 -0.048136406 0.049880102 0.0096417
000170 37 30 83 3d db 2d 03 be 2f e0 8c bd e6 7f 4c bc
       0.064056806 -0.12810461 -0.06878697 -0.012481665
000180 f4 14 51 bb 6b f8 f2 bc c9 bd b4 3a ba e6 ae bb
       -0.0031903358 -0.02965947 0.001378947 -0.0053375633
000190 0a 68 b4 3c 34 2c 6d 3c 9b f6 1f bc fa c9 8e bd
       0.022022266 0.014475871 -0.009763385 -0.06972118
0001a0 04 c8 b6 bd db de e1 3d 5f 1d b4 bc f1 5c 5d 3d
       -0.08924869 0.110288344 -0.021986661 0.054043714
0001b0 44 0f de bd bd ee 7d bd 08 22 53 bd 9a d2 f4 bc
       -0.108427554 -0.061995257 -0.051546127 -0.029885579
0001c0 0d f2 f9 3b 0a cd a1 bc d2 5e f7 3d 09 a7 73 3d
       0.0076277317 -0.01975109 0.120786324 0.05948547
0001d0 8b 84 90 bd 22 c5 bf bd 22 08 8e 3d 52 ba 4b bd
       -0.070565306 -0.09363772 0.06935145 -0.049738236
0001e0 30 9b 85 bd 8b 87 b5 3d a8 07 98 bd 50 14 25 bd
       -0.0652374 0.088637434 -0.07423335 -0.040302575
0001f0 37 20 11 bd aa a4 35 bb 04 51 d3 bd 51 d1 ed bc
       -0.035431113 -0.0027716556 -0.10318187 -0.029030474
000200 64 a0 4a 3c d6 18 c4 bd 0c ce b8 bd de 92 16 3d
       0.012367342 -0.095750496 -0.09023675 0.036761157
000210 52 51 81 bd 36 6c 3f bd 76 14 63 3d 2a 23 cb 3d
       -0.06314339 -0.046734057 0.055439435 0.099188164
000220 29 ac ce 3c 99 bc 08 bd 27 b0 4a bd 19 df b5 bd
       0.025228577 -0.033382986 -0.0494844 -0.08880443
000230 4d 88 8a bc a9 2d b9 3c cd 6a b3 3d 11 ad 30 ba
       -0.016910696 0.02260478 0.08760605 -0.0006739656
000240 05 99 3a bc 64 9c 70 3d 0c 1a e2 3d 3d 8a 40 3d
       -0.011389022 0.058742896 0.11040124 0.047006834
000250 09 56 af 3d 0b 8f 79 bd 25 e1 74 bc a7 95 c6 3d
       0.08561332 -0.060927432 -0.014946257 0.09696513
000260 00 0e 8a 3d f4 67 75 3d fc 3f 7e bc 4e 17 af bd
       0.067409515 0.05991359 -0.015518185 -0.08549367
000270 e5 cc 2b 3d 95 d6 99 3c 97 0a 05 be f0 10 1b bd
       0.04194345 0.018779078 -0.12992321 -0.03785795
000280 0c 9c 88 3d e1 55 bd 3d d4 0f 5d bd de 80 46 3d
       0.066703886 0.09244896 -0.053970173 0.04846274
000290 e4 b0 02 bb cb 22 ef bd be 2a 9a bd 13 92 b6 3d
       -0.001994186 -0.11676558 -0.07527684 0.0891458
0002a0 42 2d e1 bb e0 ce 86 bd ea 5e d6 3d da b3 f2 bd
       -0.00687185 -0.06582427 0.10467322 -0.1185071
0002b0 01 8e db 3b 8a ec 6e bd fa 91 f1 bd f2 43 8d bd
       0.006700278 -0.05833105 -0.11795421 -0.06897725
0002c0 d0 31 b6 bd 56 12 90 3d 52 df 9a 3d 1e 00 72 3b
       -0.0889622 0.07034747 0.07562126 0.003692634
0002d0 c5 14 3a 3d 12 ed f5 bd e8 0a be bd a3 da 94 3d
       0.045429964 -0.12008108 -0.09279424 0.07268264
0002e0 64 cb 31 3d 93 4a 4a 3d 1f 03 4d bd 0e e4 ff bc
       0.04340686 0.049387526 -0.050051805 -0.031236675
0002f0 77 5c e0 bc 5e 66 ae 3c f7 ce f0 3d bf 1d 73 3d
       -0.02738784 0.021289047 0.117582254 0.05935454
000300 1a 26 0e 3d 2f a6 70 bd 0a ce 9a bd 92 4b c8 bd
       0.034704305 -0.058752235 -0.0755883 -0.09780039
000310 3b 38 9c 3c 6e bc 63 3d d1 48 2a bd 0b ba 53 3d
       0.019069782 0.055599622 -0.04157335 0.051691096
000320 a7 09 31 3d f5 09 b6 bd 2b 3a 19 3d 25 5a e6 ba
       0.043222096 -0.08888618 0.03740899 -0.0017574473
000330 c6 e1 bf bd 07 89 e4 3d 6a a1 aa 3c 5a 1f 46 3d
       -0.09369235 0.111589484 0.020828921 0.048369743
000340 19 89 54 3d ce 59 dd 3d f0 4c 35 bd 27 57 c8 bb
       0.05188856 0.108081445 -0.044262826 -0.006113905
000350 f7 ad a2 bc 50 8c d5 bb ca d6 ac 3d 12 fd a2 bd
       -0.019858344 -0.0065169707 0.08439405 -0.079584256
000360 f5 39 e4 bd c7 d7 44 3d 6f d4 fb bc 73 81 2b 3d
       -0.11143867 0.048057344 -0.030740945 0.0418715
000370 42 0d c1 3d d6 d8 d4 3c ab 94 cb 3d 74 5b c9 3d
       0.09426357 0.025982302 0.099404655 0.098318964
000380 2b 4d 87 3d cb 8e 9a 3d 77 11 b5 bc 2d d1 27 bd
       0.066065155 0.07546767 -0.022103054 -0.04097097
000390 3d b2 c2 bc 66 67 97 3d d9 f6 b3 bd 0e a2 b1 bd
       -0.023766631 0.073927686 -0.08787317 -0.086734876
0003a0 f4 72 ae 3d 74 df b2 bd 5a 6a b4 bc 9f 1b cf 3d
       0.08518019 -0.087340266 -0.022023369 0.1011269
0003b0 60 18 20 bd 79 78 cb bc 36 31 ab 3d 76 30 ab bd
       -0.039085746 -0.02483772 0.083589956 -0.083588526
0003c0 3c 25 d9 3d ec bc b0 bd 20 be 7e 3d 76 1f 0b bd
       0.10602805 -0.08629784 0.062193036 -0.03396555
0003d0 dd 8d 05 bc 49 74 1a bd c7 7e 20 3a a2 b6 a0 3d
       -0.008151499 -0.037708554 0.0006122407 0.078473344
0003e0 60 c1 25 bd 20 62 51 bc 2e ab 7b 3c 63 f2 82 3d
       -0.04046762 -0.0127797425 0.015360637 0.06393888
0003f0 83 bf ec bd 8d 9d a2 bd b0 e1 ce bd 28 8a 15 3b
       -0.115599655 -0.07940207 -0.1010164 0.0022817943

sequential/conv2d_2/Conv2D f4 [64, 3, 3, 32]
000000 ef 74 00 3d b3 2f 7a 3a c9 0f 5e 3d d5 6d 95 3d
       0.031361517 0.0009543851 0.054214273 0.072963394
000010 73 99 98 bd 81 09 ba bd a7 f2 f7 3c c6 dc c0 3b
       -0.07451143 -0.09083844 0.030267073 0.0058856932
000020 87 d1 ff bc 14 a9 87 bd 93 97 8d bd 07 56 f3 3b
       -0.03122784 -0.06624046 -0.06913676 0.0074260267
000030 37 a2 41 3d e9 85 cb bd d8 92 bd bc 68 aa 27 bc
       0.04727384 -0.09937651 -0.02314131 -0.010233499
000040 0b 95 9d 3d 7f 50 ad bc 63 42 0f 3d 05 58 df ba
       0.07694443 -0.021156548 0.03497542 -0.0017039782
000050 70 25 02 3d 80 17 81 bd 0e 7d 55 bd 4b 6f 8a 3c
       0.031773984 -0.063033104 -0.052121215 0.016898772
000060 2c 8f d0 bb b1 b0 bb bc c7 3e 1c 3c fe d6 a9 3c
       -0.0063647237 -0.022911401 0.009536452 0.0207324
000070 a9 3a 22 3c 29 76 b5 3b 36 2a 07 3d fd af b5 3c
       0.009901681 0.0055377674 0.03299924 0.022178644
000080 36 7a 8a 3b 91 82 28 bd b4 68 46 bd bb 5f e2 bb
       0.0042259945 -0.041140143 -0.048439696 -0.0069083846
000090 f8 59 19 3d ac 76 93 bc 45 a7 a2 3d b4 82 0d 3d
       0.037439317 -0.018000923 0.079420604 0.034548476
0000a0 c1 e1 8d 3d 68 fb 81 3d f8 f8 95 bc 1f 0a b6 bd
       0.06927825 0.0634678 -0.018307194 -0.08888649
0000b0 95 04 86 bd 84 76 d2 3c 84 26 77 bd 8f 88 05 3d
       -0.06543843 0.025691278 -0.060339466 0.032600936
0000c0 0b 49 e4 ba b3 ce 1c bc 09 7f 15 bd 18 e5 3f 3d
       -0.0017416788 -0.009570765 -0.036498103 0.04684934
0000d0 3d d0 1a bd ac fc ae 3c 0b 4a 1a bd 7a c8 2b 3c
       -0.037796248 0.021360718 -0.03766827 0.010484809
0000e0 49 f8 b6 bc 1e 27 86 bd 5f fa ad bb 3e 32 82 bd
       -0.022335188 -0.0655043 -0.0053093876 -0.06357239
0000f0 1e c0 6a bd e2 c2 20 3d ae fb e3 3c 71 de 23 3d
       -0.057312123 0.039248355 0.027829971 0.04000706
000100 a9 3f 84 3d 7a b0 23 3d 8c b7 75 3d 65 9c f7 3a
       0.06457455 0.039963223 0.059989497 0.0018891214
000110 39 3c 25 3c 9a 34 13 3d a1 a9 a6 3d 0d ba b7 bc
       0.010085159 0.035938837 0.08137823 -0.022427583
000120 11 12 9a bd 67 f4 0d bc fd d2 a6 bd 79 56 07 b9
       -0.07522977 -0.008664227 -0.081457116 -0.00012906817
000130 49 51 84 bd 36 72 55 bc 35 68 2f bd da 9a 2a 3d
       -0.064608164 -0.013027718 -0.04282399 0.041651584
000140 30 28 94 bd df 1a 7e bd b7 0e 01 bd f6 6c 88 bd
       -0.07234228 -0.062037345 -0.031508174 -0.06661408
000150 11 e3 f6 3c 20 83 63 bd 66 9b 75 bd 47 5f 9b 3d
       0.03013757 -0.055544972 -0.059962653 0.07586532
000160 80 1a 45 3d 0f 26 1d bd 12 49 53 bd aa df 90 bc
       0.048120975 -0.038366374 -0.051583357 -0.017684776
000170 e4 3f 4c bd 75 11 42 3d 92 39 79 3d 11 8e 5f bc
       -0.04986562 0.04737993 0.06084592 -0.013644711
000180 17 f2 31 bd 7a 92 d5 3c c6 95 72 bd a9 bc 46 bd
       -0.043443765 0.026070822 -0.059224866 -0.048519764
000190 f8 5b 4d bd ba 80 d5 3c 69 6c 8b 3d c3 29 02 3c
       -0.050136536 0.026062358 0.06807787 0.007944527
0001a0 d9 64 15 3d 37 7f 39 3d 95 be 89 bd 01 c2 86 bd
       0.03647313 0.045287337 -0.06725804 -0.06579972
0001b0 bb cd e9 3c 96 4d 88 3d 6c 8c 88 3c 9a aa 93 bb
       0.028540483 0.06655423 0.01666852 -0.0045064213
0001c0 71 c9 52 3d 19 d7 be 3c 24 19 24 bd 42 06 8b 3d
       0.05146164 0.023295926 -0.04006304 0.06788303
0001d0 80 c7 37 bd 3a 8c a0 bd 0a e9 81 bd fb f5 86 bd
       -0.044867992 -0.07839246 -0.06343277 -0.06589886
0001e0 b4 9e b5 bc 74 55 0d bd d4 28 a2 bd ce d4 3b bd
       -0.022170402 -0.034505323 -0.079179436 -0.045857243
0001f0 2b 93 02 bd 9a 7d 15 3d 78 fc 00 bd d7 b6 bc 3c
       -0.03187863 0.036496736 -0.031490773 0.023036404
000200 e1 d1 2f bd 2f 0c b7 3c d8 eb 6f bd ed d7 4f 3d
       -0.042924765 0.022344677 -0.058574528 0.050743032
000210 d6 64 c9 3c 52 81 91 3d 3e 0d a1 3d 2f 09 80 bd
       0.024584215 0.07104744 0.07863854 -0.06251752
000220 5f a7 a2 bd 19 f7 70 3b 7a 5d 98 3d 07 56 72 bd
       -0.0794208 0.0036768375 0.07439704 -0.059164073
000230 20 9b 60 3c 81 8c 39 bd 98 2c 96 bd 8c 66 d5 3c
       0.01370886 -0.04530001 -0.07332724 0.026049875
000240 d7 58 b2 bd 7b 22 60 3d 29 cf 13 3d 17 1b 2f bd
       -0.08708351 0.054720383 0.036086235 -0.042750444
000250 9e da 6e bb 1e 0e 65 bd 49 82 c2 bc 74 09 05 bd
       -0.0036446224 -0.055921666 -0.023743765 -0.03247972
000260 56 8c 5a bd 98 c4 4e bd b4 2e 84 bd 21 22 2e bd
       -0.05335649 -0.050480455 -0.064542204 -0.042513017
000270 5e 5b 14 bd f2 36 8e bc ab a7 81 bd bb 28 c4 bb
       -0.036219947 -0.017360184 -0.06330808 -0.0059863008
000280 87 b2 79 3b 80 b2 1b bd 9f 1c 4f bd 5c db 9e bb
       0.0038100795 -0.038012028 -0.050564405 -0.004847927
000290 e1 bd 40 3d f2 19 65 3d 59 39 86 3d c4 86 fc bc
       0.047056083 0.055932947 0.06553907 -0.03082598
0002a0 d8 41 48 3d b5 4d 72 bd b0 f3 04 3d f4 02 4f bc
       0.04889092 -0.05915614 0.03245896 -0.012634981
0002b0 67 9a fb 3a 68 b0 66 3c 53 bc a6 3d 9b 5b c2 3c
       0.0019195796 0.014080144 0.08141389 0.023725322
0002c0 34 cc b4 bb 5d 80 00 3c 89 bb 38 3c 15 32 2f bd
       -0.005517507 0.007843104 0.011275181 -0.04277237
0002d0 9a f7 e8 bc e4 3d 98 3c 93 3c b1 bd c1 2d 6c bd
       -0.028438378 0.0185842 -0.08654132 -0.05766082
0002e0 21 38 2e bd dd ea 3f bd 52 a7 0f ba cf ef f1 bb
       -0.042533997 -0.046854842 -0.000547995 -0.0073833237
0002f0 4d 39 4a bd b7 27 91 3d 1d 67 85 bd 7c a2 78 bb
       -0.049371053 0.07087653 -0.06513808 -0.0037938645
000300 8e cb da 3b 89 b0 6a 3d 60 f4 97 3d 48 8c 13 bb
       0.0066770976 0.057297263 0.07419658 -0.0022514034
000310 1d ed f6 bc 7a 6b 8a bb 43 96 64 bc 69 f1 c7 3b
       -0.030142361 -0.004224238 -0.013951841 0.0061017764
000320 d0 b1 37 bd c9 fa 91 bd 45 1e 64 3b c1 4b 3f bd
       -0.04484731 -0.071279116 0.003480808 -0.046703104
000330 dc 37 f0 bc 69 bf 84 bd 25 33 9d 3d fe e7 17 bd
       -0.02932351 -0.06481821 0.07675771 -0.03708648
000340 e5 40 8f 3b 51 7f a1 bc 82 3d b8 bd 96 4d 7d 3c
       0.0043717497 -0.01971403 -0.08996107 0.015460392
000350 d0 10 50 bd 5d 0c 19 3c c9 d5 39 bd ae 7c 88 bd
       -0.050797284 0.009341327 -0.045369897 -0.06664406
000360 39 fc 17 bd f2 28 77 3d 42 da 01 bd a7 89 72 bc
       -0.037105773 0.060341783 -0.031702287 -0.014803327
000370 ff 30 2c 3d ea 2a b3 bd 1f f8 98 3c 51 48 0b bd
       0.042038914 -0.087484196 0.018673 -0.034004513
000380 4e b8 0d bc 89 f0 29 bd 35 70 9e 3d 88 a5 f1 3b
       -0.008649899 -0.041489158 0.077362455 0.007374469
000390 5b 31 61 3d a6 97 31 bd 9e 13 d8 bb 43 94 92 bd
       0.05497871 -0.043357514 -0.0065941354 -0.07157185
0003a0 e7 4e 3b bd 4a 71 3d bd 08 a8 8d bd 21 4d 08 3d
       -0.045729544 -0.04625062 -0.06916815 0.03327668
0003b0 63 b5 38 3c 78 3a 18 bc 1f 4f 91 bd b2 10 56 3c
       0.011273715 -0.009291284 -0.07095169 0.013065504
0003c0 30 d4 db 3c 6d 45 41 bd 7a 86 94 3d b4 61 25 bc
       0.026834577 -0.04718535 0.07252212 -0.010094095
0003d0 a0 75 8c bd 98 78 2e bd d4 e8 64 3d d2 c2 0b 3d
       -0.06858373 -0.042595476 0.055886105 0.034121342
0003e0 ae 55 d9 bc 6f 81 69 bd bb 39 87 3d c8 ef b9 bd
       -0.026530113 -0.057008203 0.06602808 -0.09078938
0003f0 20 20 a7 3c ef e5 2f 3d 7e 71 b7 3c 3b a1 a1 3c
       0.02040106 0.04294389 0.022392984 0.019730201

sequential/conv2d/Relu;sequential/conv2d/BiasAdd;sequential/conv2d/Conv2D;sequential/conv2d/BiasAdd/ReadVariableOp f4 [16]
000000 3d 0e d9 ba b1 ac 81 3c 97 e1 15 bc 91 72 80 3a
       -0.001656003 0.015829416 -0.009148023 0.0009799768
000010 23 15 8a bc 94 f2 9b bb 35 34 35 bc 01 fc 0c bc
       -0.016855782 -0.004759142 -0.01105981 -0.008605004
000020 7b c3 90 3b e2 8a 59 3c 63 6f 97 bb 3e 71 95 bc
       0.0044178343 0.013277741 -0.0046214326 -0.018242475
000030 52 33 9c bc a4 96 c4 ba ec c0 8d bc b7 fc 41 bc
       -0.01906744 -0.0014998508 -0.017303906 -0.011840037
